assets/models/mel25/feature_extractor_fp32.onnx (onnx, 651507 bytes, 3 tensors)

stft_hi_res.window f4 [1024]
0	0x00000000	0.0
1	0x371e0000	9.417534e-06
2	0x381de000	3.7640333e-05
3	0x38b1a000	8.46982e-05
4	0x391de800	0.00015059114
5	0x3976b800	0.00023528934
6	0x39b1a000	0.0003387928
7	0x39f1c400	0.00046113133
8	0x3a1de200	0.00060227513
9	0x3a47d000	0.0007622242
10	0x3a76aa00	0.0009409487
11	0x3a953900	0.0011384785
12	0x3ab19300	0.0013547838
13	0x3ad06300	0.0015898645
14	0x3af1a800	0.0018436909
15	0x3b0ab180	0.0021162927
16	0x3b1dc980	0.0024076402
17	0x3b321b80	0.0027177036
18	0x3b47a800	0.0030465126
19	0x3b5e6e80	0.0033940375
20	0x3b766e80	0.0037602484
21	0x3b87d3c0	0.0041451156
22	0x3b950d40	0.0045486987
23	0x3ba2e300	0.004970908
24	0x3bb15500	0.005411744
25	0x3bc06340	0.0058712065
26	0x3bd00dc0	0.0063492954
27	0x3be05400	0.006845951
28	0x3bf13600	0.0073611736
29	0x3c0159e0	0.007894963
30	0x3c0a6660	0.00844726
31	0x3c13c080	0.009018064
32	0x3c1d6820	0.009607345
33	0x3c275d40	0.010215104
34	0x3c319fc0	0.01084131
35	0x3c3c2f80	0.011485934
36	0x3c470c60	0.0121489465
37	0x3c523640	0.012830317
38	0x3c5dad00	0.013530016
39	0x3c6970a0	0.014248043
40	0x3c758100	0.014984369
41	0x3c80eef0	0.015738934
42	0x3c8743b0	0.016511768
43	0x3c8dbe90	0.017302781
44	0x3c945f90	0.018111974
45	0x3c9b2690	0.018939286
46	0x3ca213a0	0.019784749
47	0x3ca92690	0.02064827
48	0x3cb05f50	0.021529824
49	0x3cb7bde0	0.022429407
50	0x3cbf4230	0.02334699
51	0x3cc6ec10	0.024282485
52	0x3ccebb90	0.025235921
53	0x3cd6b080	0.026207209
54	0x3cdecae0	0.027196348
55	0x3ce70a90	0.028203279
56	0x3cef6f80	0.029227972
57	0x3cf7f9a0	0.030270398
58	0x3d005468	0.031330496
59	0x3d04be80	0.032408237
60	0x3d093b10	0.033503592
61	0x3d0dca10	0.03461653
62	0x3d126b68	0.03574696
63	0x3d171f18	0.036894888
64	0x3d1be510	0.038060248
65	0x3d20bd40	0.039242983
66	0x3d25a7a0	0.040443063
67	0x3d2aa428	0.041660458
68	0x3d2fb2d0	0.04289514
69	0x3d34d378	0.044146985
70	0x3d3a0620	0.045415998
71	0x3d3f4ac0	0.046702147
72	0x3d44a140	0.048005342
73	0x3d4a09a0	0.049325585
74	0x3d4f83c0	0.050662756
75	0x3d550fa8	0.052016884
76	0x3d5aad38	0.05338785
77	0x3d605c68	0.054775625
78	0x3d661d30	0.05618018
79	0x3d6bef80	0.057601452
80	0x3d71d348	0.059039384
81	0x3d77c870	0.060493886
82	0x3d7dcef8	0.06196496
83	0x3d81f364	0.06345251
84	0x3d8507ec	0.064956516
85	0x3d882508	0.06647688
86	0x3d8b4ab4	0.06801358
87	0x3d8e78e8	0.06956655
88	0x3d91af98	0.0711357
89	0x3d94eec0	0.072721004
90	0x3d983658	0.0743224
91	0x3d9b8658	0.075939834
92	0x3d9edeb4	0.07757321
93	0x3da23f68	0.0792225
94	0x3da5a86c	0.080887645
95	0x3da919b8	0.082568586
96	0x3dac933c	0.0842652
97	0x3db014f8	0.085977495
98	0x3db39ee0	0.087705374
99	0x3db730e8	0.08944875
100	0x3dbacb0c	0.09120759
101	0x3dbe6d44	0.092981845
102	0x3dc21784	0.094771415
103	0x3dc5c9c0	0.096576214
104	0x3dc983f8	0.09839624
105	0x3dcd461c	0.10023138
106	0x3dd11020	0.10208154
107	0x3dd4e204	0.103946716
108	0x3dd8bbb8	0.105826795
109	0x3ddc9d30	0.10772169
110	0x3de0866c	0.10963139
111	0x3de4775c	0.111555785
112	0x3de86ff4	0.11349478
113	0x3dec702c	0.115448326
114	0x3df07800	0.11741638
115	0x3df48760	0.11939883
116	0x3df89e40	0.12139559
117	0x3dfcbc9c	0.12340662
118	0x3e007132	0.1254318
119	0x3e0287ca	0.12747112
120	0x3e04a20e	0.12952444
121	0x3e06bffc	0.13159174
122	0x3e08e18a	0.13367286
123	0x3e0b06b8	0.13576782
124	0x3e0d2f7c	0.13787645
125	0x3e0f5bd6	0.13999876
126	0x3e118bbc	0.1421346
127	0x3e13bf28	0.14428389
128	0x3e15f61a	0.14644662
129	0x3e183088	0.14862263
130	0x3e1a6e6e	0.15081188
131	0x3e1cafc6	0.15301427
132	0x3e1ef48c	0.15522975
133	0x3e213cb8	0.15745819
134	0x3e238844	0.1596995
135	0x3e25d72e	0.16195366
136	0x3e28296e	0.16422054
137	0x3e2a7efc	0.16650003
138	0x3e2cd7d8	0.16879213
139	0x3e2f33f6	0.17109665
140	0x3e319356	0.1734136
141	0x3e33f5ec	0.1757428
142	0x3e365bb6	0.17808422
143	0x3e38c4b0	0.1804378
144	0x3e3b30ce	0.18280336
145	0x3e3da010	0.1851809
146	0x3e40126c	0.18757027
147	0x3e4287de	0.18997142
148	0x3e45005e	0.19238421
149	0x3e477be8	0.1948086
150	0x3e49fa76	0.1972445
151	0x3e4c7c00	0.19969177
152	0x3e4f0080	0.20215034
153	0x3e5187f2	0.20462015
154	0x3e54124e	0.20710108
155	0x3e569f8e	0.20959303
156	0x3e592fac	0.21209592
157	0x3e5bc2a2	0.21460965
158	0x3e5e5866	0.21713409
159	0x3e60f0f8	0.21966922
160	0x3e638c4e	0.2222149
161	0x3e662a60	0.22477102
162	0x3e68cb2a	0.22733751
163	0x3e6b6ea4	0.22991425
164	0x3e6e14ca	0.23250118
165	0x3e70bd94	0.23509818
166	0x3e7368fc	0.23770517
167	0x3e7616fa	0.24032202
168	0x3e78c788	0.24294865
169	0x3e7b7aa0	0.24558496
170	0x3e7e3036	0.24823079
171	0x3e807426	0.25088614
172	0x3e81d16c	0.2535509
173	0x3e832fea	0.25622493
174	0x3e848f9c	0.25890815
175	0x3e85f07d	0.2616004
176	0x3e87528c	0.26430166
177	0x3e88b5c4	0.26701176
178	0x3e8a1a22	0.26973063
179	0x3e8b7fa4	0.2724582
180	0x3e8ce646	0.27519435
181	0x3e8e4e04	0.27793896
182	0x3e8fb6da	0.28069192
183	0x3e9120c4	0.2834531
184	0x3e928bc0	0.28622246
185	0x3e93f7ca	0.28899986
186	0x3e9564e0	0.29178524
187	0x3e96d2fc	0.29457843
188	0x3e98421c	0.29737937
189	0x3e99b23c	0.30018795
190	0x3e9b2358	0.30300403
191	0x3e9c956b	0.30582747
192	0x3e9e0876	0.3086583
193	0x3e9f7c72	0.31149632
194	0x3ea0f15c	0.31434143
195	0x3ea26730	0.3171935
196	0x3ea3ddec	0.3200525
197	0x3ea5558c	0.3229183
198	0x3ea6ce08	0.32579064
199	0x3ea84763	0.32866964
200	0x3ea9c196	0.33155507
201	0x3eab3c9e	0.33444685
202	0x3eacb878	0.33734488
203	0x3eae351e	0.340249
204	0x3eafb28f	0.34315917
205	0x3eb130c4	0.34607518
206	0x3eb2afbd	0.34899703
207	0x3eb42f75	0.35192457
208	0x3eb5afe8	0.35485768
209	0x3eb73112	0.35779625
210	0x3eb8b2f0	0.36074018
211	0x3eba357e	0.36368936
212	0x3ebbb8b6	0.3666436
213	0x3ebd3c99	0.36960295
214	0x3ebec120	0.37256718
215	0x3ec04648	0.3755362
216	0x3ec1cc0e	0.37850994
217	0x3ec3526d	0.38148823
218	0x3ec4d960	0.38447094
219	0x3ec660e6	0.38745803
220	0x3ec7e8fc	0.3904494
221	0x3ec9719b	0.39344487
222	0x3ecafac0	0.39644432
223	0x3ecc8469	0.3994477
224	0x3ece0e91	0.40245488
225	0x3ecf9932	0.40546566
226	0x3ed1244c	0.40848005
227	0x3ed2afda	0.4114979
228	0x3ed43bd8	0.41451907
229	0x3ed5c842	0.41754347
230	0x3ed75514	0.42057097
231	0x3ed8e24a	0.42360145
232	0x3eda6fdf	0.42663476
233	0x3edbfdd2	0.42967087
234	0x3edd8c1f	0.43270966
235	0x3edf1ac0	0.43575096
236	0x3ee0a9b2	0.43879467
237	0x3ee238f2	0.4418407
238	0x3ee3c87c	0.44488895
239	0x3ee55849	0.4479392
240	0x3ee6e859	0.45099142
241	0x3ee878a8	0.45404553
242	0x3eea0931	0.45710137
243	0x3eeb99f0	0.46015882
244	0x3eed2ae1	0.46321777
245	0x3eeebc00	0.46627808
246	0x3ef04d49	0.46933964
247	0x3ef1deba	0.4724024
248	0x3ef3704d	0.47546616
249	0x3ef50200	0.47853088
250	0x3ef693ce	0.4815964
251	0x3ef825b3	0.48466262
252	0x3ef9b7ac	0.48772943
253	0x3efb49b2	0.49079663
254	0x3efcdbc6	0.49386424
255	0x3efe6de1	0.49693206

mel_spectrogram.spectrogram.window f4 [2048]
0	0x00000000	0.0
1	0x361e0000	2.3543835e-06
2	0x371e0000	9.417534e-06
3	0x37b1c000	2.1189451e-05
4	0x381de000	3.7640333e-05
5	0x3876c000	5.8829784e-05
6	0x38b1a000	8.46982e-05
7	0x38f1d000	0.000115305185
8	0x391de800	0.00015059114
9	0x3947d800	0.00019058585
10	0x3976b800	0.00023528934
11	0x39954400	0.0002847016
12	0x39b1a000	0.0003387928
13	0x39d07800	0.00039762259
14	0x39f1c400	0.00046113133
15	0x3a0ac400	0.00052934885
16	0x3a1de200	0.00060227513
17	0x3a323a00	0.0006798804
18	0x3a47d000	0.0007622242
19	0x3a5e9e00	0.0008492172
20	0x3a76aa00	0.0009409487
21	0x3a87f800	0.0010373592
22	0x3a953900	0.0011384785
23	0x3aa31700	0.0012442768
24	0x3ab19300	0.0013547838
25	0x3ac0ac00	0.0014699697
26	0x3ad06300	0.0015898645
27	0x3ae0b700	0.0017144382
28	0x3af1a800	0.0018436909
29	0x3b019b80	0.0019776523
30	0x3b0ab180	0.0021162927
31	0x3b141600	0.002259612
32	0x3b1dc980	0.0024076402
33	0x3b27cb80	0.0025603473
34	0x3b321b80	0.0027177036
35	0x3b3cba80	0.0028797686
36	0x3b47a800	0.0030465126
37	0x3b52e400	0.0032179356
38	0x3b5e6e80	0.0033940375
39	0x3b6a4700	0.0035747886
40	0x3b766e80	0.0037602484
41	0x3b817200	0.0039503574
42	0x3b87d3c0	0.0041451156
43	0x3b8e5d00	0.0043445826
44	0x3b950d40	0.0045486987
45	0x3b9be480	0.004757464
46	0x3ba2e300	0.004970908
47	0x3baa0880	0.0051890016
48	0x3bb15500	0.005411744
49	0x3bb8c8c0	0.0056391656
50	0x3bc06340	0.0058712065
51	0x3bc82500	0.0061079264
52	0x3bd00dc0	0.0063492954
53	0x3bd81d80	0.0065953135
54	0x3be05400	0.006845951
55	0x3be8b180	0.007101238
56	0x3bf13600	0.0073611736
57	0x3bf9e180	0.0076257586
58	0x3c0159e0	0.007894963
59	0x3c05d660	0.008168787
60	0x3c0a6660	0.00844726
61	0x3c0f09c0	0.008730352
62	0x3c13c080	0.009018064
63	0x3c188aa0	0.0093103945
64	0x3c1d6820	0.009607345
65	0x3c225900	0.009908915
66	0x3c275d40	0.010215104
67	0x3c2c74e0	0.010525912
68	0x3c319fc0	0.01084131
69	0x3c36de00	0.011161327
70	0x3c3c2f80	0.011485934
71	0x3c419440	0.011815131
72	0x3c470c60	0.0121489465
73	0x3c4c97a0	0.012487322
74	0x3c523640	0.012830317
75	0x3c57e800	0.013177872
76	0x3c5dad00	0.013530016
77	0x3c638540	0.01388675
78	0x3c6970a0	0.014248043
79	0x3c6f6f40	0.014613926
80	0x3c758100	0.014984369
81	0x3c7ba5e0	0.015359372
82	0x3c80eef0	0.015738934
83	0x3c841490	0.016123086
84	0x3c8743b0	0.016511768
85	0x3c8a7c60	0.01690501
86	0x3c8dbe90	0.017302781
87	0x3c910a50	0.017705113
88	0x3c945f90	0.018111974
89	0x3c97be50	0.018523365
90	0x3c9b2690	0.018939286
91	0x3c9e9860	0.019359767
92	0x3ca213a0	0.019784749
93	0x3ca59850	0.02021423
94	0x3ca92690	0.02064827
95	0x3cacbe30	0.021086782
96	0x3cb05f50	0.021529824
97	0x3cb409e0	0.021977365
98	0x3cb7bde0	0.022429407
99	0x3cbb7b50	0.022885948
100	0x3cbf4230	0.02334699
101	0x3cc31270	0.023812503
102	0x3cc6ec10	0.024282485
103	0x3ccacf20	0.024756968
104	0x3ccebb90	0.025235921
105	0x3cd2b150	0.025719315
106	0x3cd6b080	0.026207209
107	0x3cdab900	0.026699543
108	0x3cdecae0	0.027196348
109	0x3ce2e600	0.027697563
110	0x3ce70a90	0.028203279
111	0x3ceb3860	0.028713405
112	0x3cef6f80	0.029227972
113	0x3cf3afe0	0.02974695
114	0x3cf7f9a0	0.030270398
115	0x3cfc4c90	0.030798227
116	0x3d005468	0.031330496
117	0x3d028728	0.031867176
118	0x3d04be80	0.032408237
119	0x3d06fa80	0.03295374
120	0x3d093b10	0.033503592
121	0x3d0b8040	0.034057856
122	0x3d0dca10	0.03461653
123	0x3d101870	0.035179555
124	0x3d126b68	0.03574696
125	0x3d14c2f8	0.03631875
126	0x3d171f18	0.036894888
127	0x3d197fc8	0.037475377
128	0x3d1be510	0.038060248
129	0x3d1e4ee0	0.03864944
130	0x3d20bd40	0.039242983
131	0x3d233028	0.039840847
132	0x3d25a7a0	0.040443063
133	0x3d2823a0	0.0410496
134	0x3d2aa428	0.041660458
135	0x3d2d2938	0.042275637
136	0x3d2fb2d0	0.04289514
137	0x3d3240e0	0.0435189
138	0x3d34d378	0.044146985
139	0x3d376a90	0.04477936
140	0x3d3a0620	0.045415998
141	0x3d3ca630	0.046056926
142	0x3d3f4ac0	0.046702147
143	0x3d41f3c8	0.04735163
144	0x3d44a140	0.048005342
145	0x3d475338	0.048663348
146	0x3d4a09a0	0.049325585
147	0x3d4cc478	0.049992055
148	0x3d4f83c0	0.050662756
149	0x3d524780	0.05133772
150	0x3d550fa8	0.052016884
151	0x3d57dc38	0.05270025
152	0x3d5aad38	0.05338785
153	0x3d5d82a0	0.05407965
154	0x3d605c68	0.054775625
155	0x3d633aa0	0.05547583
156	0x3d661d30	0.05618018
157	0x3d690428	0.05688873
158	0x3d6bef80	0.057601452
159	0x3d6edf38	0.058318347
160	0x3d71d348	0.059039384
161	0x3d74cbb0	0.059764564
162	0x3d77c870	0.060493886
163	0x3d7ac988	0.06122735
164	0x3d7dcef8	0.06196496
165	0x3d806c5c	0.06270668
166	0x3d81f364	0.06345251
167	0x3d837c94	0.06420246
168	0x3d8507ec	0.064956516
169	0x3d869568	0.06571466
170	0x3d882508	0.06647688
171	0x3d89b6cc	0.06724319
172	0x3d8b4ab4	0.06801358
173	0x3d8ce0bc	0.06878802
174	0x3d8e78e8	0.06956655
175	0x3d901330	0.0703491
176	0x3d91af98	0.0711357
177	0x3d934e1c	0.071926326
178	0x3d94eec0	0.072721004
179	0x3d969180	0.07351971
180	0x3d983658	0.0743224
181	0x3d99dd4c	0.07512912
182	0x3d9b8658	0.075939834
183	0x3d9d317c	0.07675454
184	0x3d9edeb4	0.07757321
185	0x3da08e04	0.07839587
186	0x3da23f68	0.0792225
187	0x3da3f2e4	0.08005312
188	0x3da5a86c	0.080887645
189	0x3da76008	0.081726134
190	0x3da919b8	0.082568586
191	0x3daad570	0.08341491
192	0x3dac933c	0.0842652
193	0x3dae5314	0.0851194
194	0x3db014f8	0.085977495
195	0x3db1d8e4	0.08683947
196	0x3db39ee0	0.087705374
197	0x3db566e0	0.088575125
198	0x3db730e8	0.08944875
199	0x3db8fcf8	0.09032625
200	0x3dbacb0c	0.09120759
201	0x3dbc9b28	0.09209281
202	0x3dbe6d44	0.092981845
203	0x3dc04164	0.09387472
204	0x3dc21784	0.094771415
205	0x3dc3efa4	0.09567192
206	0x3dc5c9c0	0.096576214
207	0x3dc7a5e0	0.09748435
208	0x3dc983f8	0.09839624
209	0x3dcb640c	0.09931192
210	0x3dcd461c	0.10023138
211	0x3dcf2a24	0.101154596
212	0x3dd11020	0.10208154
213	0x3dd2f818	0.103012264
214	0x3dd4e204	0.103946716
215	0x3dd6cde4	0.10488489
216	0x3dd8bbb8	0.105826795
217	0x3ddaab7c	0.10677239
218	0x3ddc9d30	0.10772169
219	0x3dde90d8	0.108674705
220	0x3de0866c	0.10963139
221	0x3de27dec	0.11059174
222	0x3de4775c	0.111555785
223	0x3de672b4	0.11252347
224	0x3de86ff4	0.11349478
225	0x3dea6f1c	0.11446974
226	0x3dec702c	0.115448326
227	0x3dee7324	0.11643055
228	0x3df07800	0.11741638
229	0x3df27ebc	0.11840579
230	0x3df48760	0.11939883
231	0x3df691e0	0.12039542
232	0x3df89e40	0.12139559
233	0x3dfaac7c	0.1223993
234	0x3dfcbc9c	0.12340662
235	0x3dfece94	0.124417454
236	0x3e007132	0.1254318
237	0x3e017c08	0.1264497
238	0x3e0287ca	0.12747112
239	0x3e039476	0.12849602
240	0x3e04a20e	0.12952444
241	0x3e05b090	0.13055634
242	0x3e06bffc	0.13159174
243	0x3e07d04e	0.13263056
244	0x3e08e18a	0.13367286
245	0x3e09f3ae	0.13471863
246	0x3e0b06b8	0.13576782
247	0x3e0c1aa8	0.13682044
248	0x3e0d2f7c	0.13787645
249	0x3e0e4538	0.13893592
250	0x3e0f5bd6	0.13999876
251	0x3e107358	0.141065
252	0x3e118bbc	0.1421346
253	0x3e12a500	0.14320755
254	0x3e13bf28	0.14428389
255	0x3e14da32	0.1453636

mel_spectrogram.mel_scale.fb f4 [1025, 128]
0	0x00000000	0.0
1	0x00000000	0.0
2	0x00000000	0.0
3	0x00000000	0.0
4	0x00000000	0.0
5	0x00000000	0.0
6	0x00000000	0.0
7	0x00000000	0.0
8	0x00000000	0.0
9	0x00000000	0.0
10	0x00000000	0.0
11	0x00000000	0.0
12	0x00000000	0.0
13	0x00000000	0.0
14	0x00000000	0.0
15	0x00000000	0.0
16	0x00000000	0.0
17	0x00000000	0.0
18	0x00000000	0.0
19	0x00000000	0.0
20	0x00000000	0.0
21	0x00000000	0.0
22	0x00000000	0.0
23	0x00000000	0.0
24	0x00000000	0.0
25	0x00000000	0.0
26	0x00000000	0.0
27	0x00000000	0.0
28	0x00000000	0.0
29	0x00000000	0.0
30	0x00000000	0.0
31	0x00000000	0.0
32	0x00000000	0.0
33	0x00000000	0.0
34	0x00000000	0.0
35	0x00000000	0.0
36	0x00000000	0.0
37	0x00000000	0.0
38	0x00000000	0.0
39	0x00000000	0.0
40	0x00000000	0.0
41	0x00000000	0.0
42	0x00000000	0.0
43	0x00000000	0.0
44	0x00000000	0.0
45	0x00000000	0.0
46	0x00000000	0.0
47	0x00000000	0.0
48	0x00000000	0.0
49	0x00000000	0.0
50	0x00000000	0.0
51	0x00000000	0.0
52	0x00000000	0.0
53	0x00000000	0.0
54	0x00000000	0.0
55	0x00000000	0.0
56	0x00000000	0.0
57	0x00000000	0.0
58	0x00000000	0.0
59	0x00000000	0.0
60	0x00000000	0.0
61	0x00000000	0.0
62	0x00000000	0.0
63	0x00000000	0.0
64	0x00000000	0.0
65	0x00000000	0.0
66	0x00000000	0.0
67	0x00000000	0.0
68	0x00000000	0.0
69	0x00000000	0.0
70	0x00000000	0.0
71	0x00000000	0.0
72	0x00000000	0.0
73	0x00000000	0.0
74	0x00000000	0.0
75	0x00000000	0.0
76	0x00000000	0.0
77	0x00000000	0.0
78	0x00000000	0.0
79	0x00000000	0.0
80	0x00000000	0.0
81	0x00000000	0.0
82	0x00000000	0.0
83	0x00000000	0.0
84	0x00000000	0.0
85	0x00000000	0.0
86	0x00000000	0.0
87	0x00000000	0.0
88	0x00000000	0.0
89	0x00000000	0.0
90	0x00000000	0.0
91	0x00000000	0.0
92	0x00000000	0.0
93	0x00000000	0.0
94	0x00000000	0.0
95	0x00000000	0.0
96	0x00000000	0.0
97	0x00000000	0.0
98	0x00000000	0.0
99	0x00000000	0.0
100	0x00000000	0.0
101	0x00000000	0.0
102	0x00000000	0.0
103	0x00000000	0.0
104	0x00000000	0.0
105	0x00000000	0.0
106	0x00000000	0.0
107	0x00000000	0.0
108	0x00000000	0.0
109	0x00000000	0.0
110	0x00000000	0.0
111	0x00000000	0.0
112	0x00000000	0.0
113	0x00000000	0.0
114	0x00000000	0.0
115	0x00000000	0.0
116	0x00000000	0.0
117	0x00000000	0.0
118	0x00000000	0.0
119	0x00000000	0.0
120	0x00000000	0.0
121	0x00000000	0.0
122	0x00000000	0.0
123	0x00000000	0.0
124	0x00000000	0.0
125	0x00000000	0.0
126	0x00000000	0.0
127	0x00000000	0.0
128	0x3f10d5c7	0.565762
129	0x00000000	0.0
130	0x00000000	0.0
131	0x00000000	0.0
132	0x00000000	0.0
133	0x00000000	0.0
134	0x00000000	0.0
135	0x00000000	0.0
136	0x00000000	0.0
137	0x00000000	0.0
138	0x00000000	0.0
139	0x00000000	0.0
140	0x00000000	0.0
141	0x00000000	0.0
142	0x00000000	0.0
143	0x00000000	0.0
144	0x00000000	0.0
145	0x00000000	0.0
146	0x00000000	0.0
147	0x00000000	0.0
148	0x00000000	0.0
149	0x00000000	0.0
150	0x00000000	0.0
151	0x00000000	0.0
152	0x00000000	0.0
153	0x00000000	0.0
154	0x00000000	0.0
155	0x00000000	0.0
156	0x00000000	0.0
157	0x00000000	0.0
158	0x00000000	0.0
159	0x00000000	0.0
160	0x00000000	0.0
161	0x00000000	0.0
162	0x00000000	0.0
163	0x00000000	0.0
164	0x00000000	0.0
165	0x00000000	0.0
166	0x00000000	0.0
167	0x00000000	0.0
168	0x00000000	0.0
169	0x00000000	0.0
170	0x00000000	0.0
171	0x00000000	0.0
172	0x00000000	0.0
173	0x00000000	0.0
174	0x00000000	0.0
175	0x00000000	0.0
176	0x00000000	0.0
177	0x00000000	0.0
178	0x00000000	0.0
179	0x00000000	0.0
180	0x00000000	0.0
181	0x00000000	0.0
182	0x00000000	0.0
183	0x00000000	0.0
184	0x00000000	0.0
185	0x00000000	0.0
186	0x00000000	0.0
187	0x00000000	0.0
188	0x00000000	0.0
189	0x00000000	0.0
190	0x00000000	0.0
191	0x00000000	0.0
192	0x00000000	0.0
193	0x00000000	0.0
194	0x00000000	0.0
195	0x00000000	0.0
196	0x00000000	0.0
197	0x00000000	0.0
198	0x00000000	0.0
199	0x00000000	0.0
200	0x00000000	0.0
201	0x00000000	0.0
202	0x00000000	0.0
203	0x00000000	0.0
204	0x00000000	0.0
205	0x00000000	0.0
206	0x00000000	0.0
207	0x00000000	0.0
208	0x00000000	0.0
209	0x00000000	0.0
210	0x00000000	0.0
211	0x00000000	0.0
212	0x00000000	0.0
213	0x00000000	0.0
214	0x00000000	0.0
215	0x00000000	0.0
216	0x00000000	0.0
217	0x00000000	0.0
218	0x00000000	0.0
219	0x00000000	0.0
220	0x00000000	0.0
221	0x00000000	0.0
222	0x00000000	0.0
223	0x00000000	0.0
224	0x00000000	0.0
225	0x00000000	0.0
226	0x00000000	0.0
227	0x00000000	0.0
228	0x00000000	0.0
229	0x00000000	0.0
230	0x00000000	0.0
231	0x00000000	0.0
232	0x00000000	0.0
233	0x00000000	0.0
234	0x00000000	0.0
235	0x00000000	0.0
236	0x00000000	0.0
237	0x00000000	0.0
238	0x00000000	0.0
239	0x00000000	0.0
240	0x00000000	0.0
241	0x00000000	0.0
242	0x00000000	0.0
243	0x00000000	0.0
244	0x00000000	0.0
245	0x00000000	0.0
246	0x00000000	0.0
247	0x00000000	0.0
248	0x00000000	0.0
249	0x00000000	0.0
250	0x00000000	0.0
251	0x00000000	0.0
252	0x00000000	0.0
253	0x00000000	0.0
254	0x00000000	0.0
255	0x00000000	0.0
