assets/models/mel25/main_model_int8.onnx (onnx, 912844 bytes, 208 tensors)

timing_layers.0.bn1.weight f4 [64]
0	0x3eb6736d	0.35634938
1	0x3e5a4ba8	0.21317923
2	0x3eaf9b71	0.3429828
3	0x88a2bb70	-9.794087e-34
4	0x3eaa6aab	0.33284506
5	0x3e0cd360	0.13752508
6	0x3e2d4a19	0.16922797
7	0x88ad458d	-1.042841e-33
8	0x3e71236f	0.23548673
9	0xbb41eee9	-0.0029591864
10	0x3dd0c823	0.10194423
11	0x3e84b88c	0.25922048
12	0x3e899e47	0.2687857
13	0x3da2ca83	0.07948782
14	0x3f3f9b29	0.7484613
15	0x88a71fde	-1.0058439e-33
16	0x3e8da425	0.27664295
17	0x3e5acb48	0.21366608
18	0x3e79c460	0.24391317
19	0x88aac2fe	-1.0277345e-33
20	0x3eb42275	0.3518254
21	0x08a18fdc	9.723656e-34
22	0x08a5ff51	9.990601e-34
23	0x3e984bbf	0.2974529
24	0x3e7a60d8	0.24451005
25	0x08a43503	9.882854e-34
26	0x3e28def7	0.16491304
27	0x3ec955d7	0.39323303
28	0x3e880f46	0.26574153
29	0x3f03cbd0	0.5148287
30	0x3ea8cc00	0.3296814
31	0x88a11dd0	-9.696844e-34
32	0x08b122e8	1.0661006e-33
33	0x3eb6e2aa	0.35719806
34	0x3ef1b4c3	0.47208223
35	0x3e72a8a7	0.23697148
36	0x3e928b33	0.28621826
37	0x86c4e2b8	-7.406014e-35
38	0x3ef0e3ce	0.470488
39	0x3ee5f167	0.44910738
40	0x3e7bce58	0.24590433
41	0x3ee4c851	0.4468408
42	0x089eee8c	9.565361e-34
43	0x3ebef8de	0.37299246
44	0x3e711935	0.23544772
45	0x3e134f17	0.14385639
46	0x3db6c432	0.0892414
47	0x08ada991	1.0451924e-33
48	0x88a4c958	-9.917727e-34
49	0x3eec0b90	0.4610257
50	0x3e853bf7	0.26022312
51	0x3e96f80a	0.29486114
52	0x3e87547c	0.26431644
53	0x3e94a2c0	0.29030418
54	0xbbc900f4	-0.006134147
55	0x3e7a35e6	0.24434623
56	0x88ae169c	-1.04775595e-33
57	0x3e97c0f4	0.296394
58	0x08a1e08e	9.742628e-34
59	0x3e36caaa	0.17850748
60	0x88aaf5e5	-1.0289312e-33
61	0x3f1844c6	0.5947994
62	0x089f924e	9.6038605e-34
63	0x3ebe7e15	0.37205568

timing_layers.0.bn1.bias f4 [64]
0	0xbe26ccd5	-0.16289075
1	0xbdcabda4	-0.09899452
2	0x3df2c057	0.11853092
3	0xa263aa58	-3.0854416e-18
4	0xbd21860c	-0.039434478
5	0xbdfd6d04	-0.12374309
6	0xbdd68ae2	-0.104757085
7	0x88a5f08c	-9.987129e-34
8	0xbda0610f	-0.078310125
9	0x3b276b12	0.0025545997
10	0xbe16a15e	-0.14709994
11	0x3db6694d	0.08906803
12	0xbd0a2b5a	-0.03373275
13	0xbda76bf8	-0.0817489
14	0x3e201a97	0.15635143
15	0x88aeceaa	-1.0520831e-33
16	0xbd0d544a	-0.034504212
17	0xbdb56287	-0.08856683
18	0xbdee9279	-0.11649031
19	0x95a42854	-6.63027e-26
20	0xbd950e67	-0.07278138
21	0x8b282fcb	-3.2391578e-32
22	0xa3984be7	-1.6512019e-17
23	0xbdeab83c	-0.11460921
24	0xbe228cfb	-0.15874092
25	0x94043d9c	-6.676447e-27
26	0xbccb801b	-0.024841359
27	0xbe21dcda	-0.15806904
28	0xbb70bc41	-0.0036733302
29	0x3e0ba4bd	0.13637061
30	0xbe0c77fa	-0.13717642
31	0xa79a0a4b	-4.2754746e-15
32	0xa69a7614	-1.0717902e-15
33	0x3ab083a8	0.0013466971
34	0x3d2a4da9	0.04157797
35	0xbdf73fba	-0.12072702
36	0xbd53c2b2	-0.051699348
37	0x9dca92b4	-5.3620642e-21
38	0xbb8fc622	-0.004387633
39	0x3df065e9	0.11738188
40	0xbc95a36c	-0.018266402
41	0x3ce701b6	0.028199058
42	0xa6818a4b	-8.988658e-16
43	0x3d05c1cf	0.032655533
44	0xbdc8f0f1	-0.09811581
45	0xbe12ffb5	-0.14355357
46	0xbd3a3d93	-0.045468878
47	0x95ac00a4	-6.947126e-26
48	0x8b7bb8b2	-4.847979e-32
49	0x3e19b73f	0.15011309
50	0x3b461327	0.0030223818
51	0xbe2129ae	-0.15738556
52	0x3bee987e	0.007281362
53	0xbd1ac20a	-0.037782706
54	0xbb693fef	-0.0035591086
55	0xbd23a9d4	-0.039956883
56	0x922a94b1	-5.382582e-28
57	0xbe2e9805	-0.17050178
58	0xafd79188	-3.9211678e-10
59	0xbdb48559	-0.088144965
60	0xa2f1e0c0	-6.5561144e-18
61	0x3e468af4	0.19388944
62	0xa2e5f2ec	-6.2327778e-18
63	0x3d0c1ce8	0.034207255

timing_layers.0.bn2.weight f4 [64]
0	0x3f1d0dc5	0.61349136
1	0x3f676181	0.90383154
2	0x3f214bba	0.63006175
3	0x3f19061c	0.5977495
4	0x3f5cd816	0.8626722
5	0x3f23330d	0.6374977
6	0x3efb06c0	0.49028587
7	0x3f7185a2	0.9434453
8	0x3f49b3ac	0.7878978
9	0x3f7a3b03	0.97746295
10	0x3f303970	0.6883764
11	0x3f865d1d	1.0497166
12	0x3f5d7f75	0.8652261
13	0x3f4f3c5a	0.80951464
14	0x3e5a3aec	0.2131154
15	0x3f29af8a	0.66283476
16	0x3f806940	1.003212
17	0x3ed21130	0.41028738
18	0x3f0bb9ee	0.5458058
19	0x3eb6f3b0	0.35732794
20	0x3f594f7c	0.8488691
21	0x3ed9bc0e	0.42526287
22	0x3f33964d	0.70151216
23	0x3eb2b5f0	0.34904432
24	0x3f432da8	0.7624154
25	0x08afdb87	1.058404e-33
26	0x3f0ea1e3	0.5571577
27	0x3ea0461c	0.3130349
28	0x3f0234f7	0.5086207
29	0x3f2da892	0.6783534
30	0x3e9e7933	0.30951843
31	0x3f89fc1f	1.0780066
32	0x3f5be78e	0.859002
33	0x3f4f56cd	0.8099182
34	0x3f4b7341	0.7947274
35	0x3eee149c	0.465001
36	0x3f0b46a5	0.5440467
37	0x3f187358	0.59551
38	0x3ef8fbf8	0.48629737
39	0x3f1470e2	0.57984746
40	0x3f392d07	0.7233433
41	0x3f7fe29d	0.9995516
42	0x3f114f70	0.56761837
43	0x3f31dd73	0.6947853
44	0x3f919d75	1.1376177
45	0x3f0b74ac	0.544749
46	0x3f486bc6	0.7828945
47	0x3f5dd41f	0.86651796
48	0x3f3338e9	0.70008713
49	0x3f7d7c22	0.99017537
50	0x3f3e75a1	0.7439824
51	0x3ec44067	0.38330385
52	0x3f7cba41	0.987217
53	0x3f67367c	0.9031751
54	0x3f48e7cf	0.7847871
55	0x3f134def	0.5754079
56	0x3f741759	0.95348126
57	0x3f6dc818	0.92883444
58	0x3ee27b26	0.4423458
59	0x3eb30181	0.34962085
60	0x3f936c9b	1.1517519
61	0x3f274d83	0.6535265
62	0x369a7869	4.6035752e-06
63	0x3f515b63	0.8178007

timing_layers.0.bn2.bias f4 [64]
0	0xbd28932f	-0.04115599
1	0x3e5dbe9e	0.21654746
2	0xbccecedd	-0.025245124
3	0xbb7f243e	-0.0038931514
4	0x3e36c2ea	0.17847791
5	0xbdbab821	-0.09117151
6	0xbe04315d	-0.12909456
7	0x3d61972d	0.055075813
8	0x3d4ee8d6	0.05051502
9	0x3db3322c	0.08749804
10	0xbdabf59c	-0.08396456
11	0x3d73a60b	0.059484523
12	0x3d2e732f	0.042590316
13	0x3da884b3	0.08228435
14	0xbe4ff11c	-0.2030682
15	0x39aa06d6	0.0003243002
16	0x3dea36c0	0.11436224
17	0x3ba0acb9	0.0049034026
18	0xbe2282fa	-0.15870276
19	0xbdf7d1bd	-0.12100551
20	0x3d20f8c5	0.039299745
21	0xbe668990	-0.22513413
22	0xbd3b9a14	-0.045801237
23	0xbe53a6f4	-0.20669156
24	0x3e1c4211	0.15259577
25	0xb60188c2	-1.9302101e-06
26	0x3b6498c3	0.0034881092
27	0xbe11670d	-0.14199467
28	0xbde4b3cd	-0.11167107
29	0x3e2ac152	0.16675308
30	0x3d67d0ad	0.056595493
31	0x3e005342	0.1253176
32	0x3e2da42e	0.16957161
33	0xbd5d66a1	-0.054052953
34	0x3bc7b408	0.0060944594
35	0xbe649e97	-0.22326122
36	0xbe362f1d	-0.1779141
37	0xbd7896d0	-0.0606907
38	0xbdb626ca	-0.08894117
39	0xbd447a4e	-0.0479682
40	0x3bd47568	0.0064837225
41	0x3e81c72f	0.25347278
42	0xbe174d37	-0.14775549
43	0x3dd8b76d	0.10581861
44	0x3e8466db	0.25859722
45	0xbe2d3c04	-0.16917425
46	0xbcf6000d	-0.030029321
47	0x3e22e291	0.1590674
48	0x3d4ccd08	0.05000022
49	0x3e67f687	0.22652636
50	0x3d17b82c	0.037040874
51	0xbe8a7310	-0.2704091
52	0x3e7f035f	0.2490363
53	0xbc6868c0	-0.014185131
54	0x3df81c31	0.12114752
55	0xbe161d57	-0.1465963
56	0xbc8bb124	-0.01705224
57	0x3e253713	0.1613429
58	0xbe53bc98	-0.20677412
59	0xbd97997a	-0.0740232
60	0x3e33a642	0.17543891
61	0xbdcce7d0	-0.10005152
62	0x3a686628	0.000886532
63	0x3d57cc20	0.052684903

timing_layers.1.bn1.weight f4 [64]
0	0x3f492241	0.7856789
1	0x08a35a90	9.831497e-34
2	0x3ed5a44e	0.41726917
3	0x3ea48a9b	0.32136998
4	0x3ec9d192	0.39417702
5	0x3e888dee	0.26670784
6	0x3ee3fa90	0.44527102
7	0x3f0a8f87	0.54125255
8	0x3ed9e0d8	0.42554355
9	0x3f115bd4	0.56780744
10	0x3ec6eb28	0.38851285
11	0x88b822a1	-1.1082238e-33
12	0x3e5352bc	0.2063703
13	0x3eed99ad	0.46406308
14	0x3ca80ff6	0.020515423
15	0x3f21a7a7	0.6314644
16	0x3f1b1f19	0.60594326
17	0x08ab33e4	1.0303888e-33
18	0x3ece4b9d	0.40292063
19	0x3f06789f	0.52527803
20	0x3e3787f2	0.17922953
21	0x3ef08361	0.46975234
22	0x3ec9c861	0.3941069
23	0x3ef84182	0.48487478
24	0x3e3c95ea	0.18416563
25	0x3f115bdd	0.567808
26	0x3f1d9a00	0.6156311
27	0x3e04e0e5	0.12976415
28	0xbd3ccdb4	-0.04609461
29	0x3dc3df4e	0.09564076
30	0x3f37558d	0.71614915
31	0x88aab0ef	-1.02731e-33
32	0x3d9a8df2	0.07546605
33	0x3f146232	0.57962334
34	0x3f097a51	0.53702265
35	0x3b98e79e	0.004666283
36	0x3f586f70	0.8454504
37	0x3ed9ac79	0.425144
38	0x3ea1a3b1	0.315702
39	0x3e493164	0.19647747
40	0x3eb26e20	0.34849644
41	0x3f0e838b	0.5566947
42	0x3ea14fca	0.31506187
43	0x3f1d02fb	0.6133267
44	0x08ab8068	1.0321876e-33
45	0x3eec0293	0.46095714
46	0x3c534d58	0.012896858
47	0x3e41776a	0.18893209
48	0x086e851f	7.1777003e-34
49	0x3e18b2db	0.14911978
50	0x3ee29865	0.44256893
51	0x3d6d523f	0.057939764
52	0x08a323ae	9.818594e-34
53	0x3f06af69	0.52611405
54	0x3ea01c46	0.3127157
55	0x3f28e301	0.6597138
56	0xbb4bc5a8	-0.0031093154
57	0x3e9ca2e6	0.30593032
58	0x3ea6c292	0.3257032
59	0x3eb5bc87	0.35495397
60	0x3efcf693	0.4940687
61	0x3f18d732	0.5970336
62	0x3f1c2e88	0.610085
63	0x3f45b41c	0.7722795

timing_layers.1.bn1.bias f4 [64]
0	0xbe324eb7	-0.1741284
1	0xae4c4028	-4.6441212e-11
2	0xbe1cb9c2	-0.15305236
3	0xbe29a200	-0.16565704
4	0x3b35b0d2	0.0027723801
5	0xbd9f2598	-0.07770842
6	0xbe8972a3	-0.26845273
7	0xbe60766d	-0.21920176
8	0xbe7f4f73	-0.24932651
9	0x3d0f98a5	0.035057683
10	0xbd080148	-0.033204347
11	0x8bb1fd67	-6.85592e-32
12	0xbe3a1860	-0.18173361
13	0xbe884ca3	-0.2662097
14	0xbd440654	-0.047857597
15	0xbe6d9372	-0.23200777
16	0xbd9feb9f	-0.07808613
17	0x88a5c57c	-9.977005e-34
18	0xbd5086e0	-0.050909877
19	0xbdbcf1f2	-0.09225835
20	0xbe2f9034	-0.17144853
21	0xbd17f597	-0.037099447
22	0xbe333553	-0.1750081
23	0xbe8e51ad	-0.2779669
24	0xbe6f54b4	-0.23372155
25	0xbcab882c	-0.020938955
26	0x3d24160a	0.04006008
27	0xbe09357e	-0.13399312
28	0xbdc7a0e2	-0.09747483
29	0xbdba96ee	-0.09110819
30	0xbe8ca98c	-0.27473104
31	0x88a2f7ae	-9.80825e-34
32	0x3cbbd349	0.022927897
33	0xbe1bd51c	-0.15218014
34	0xbd7cd6e8	-0.061728388
35	0xbba88763	-0.0051430925
36	0xbe432f15	-0.19060929
37	0xbbc1c5f4	-0.0059134904
38	0xbe2138a2	-0.1574426
39	0xbe4aec86	-0.19816789
40	0x3dff5aac	0.12468466
41	0xbc9be706	-0.019031059
42	0xbe0508e6	-0.12991676
43	0xbe683d31	-0.22679593
44	0xaf8b3338	-2.5320346e-10
45	0xbe7bac8c	-0.2457754
46	0xbca43744	-0.020045884
47	0xbe3ba4b1	-0.18324544
48	0xb41740d8	-1.4086561e-07
49	0xbe215a5e	-0.15757129
50	0xbc396566	-0.011315679
51	0xbe006a8b	-0.12540643
52	0xa264489e	-3.0938205e-18
53	0xbe81379e	-0.25237745
54	0xbe0c04f9	-0.13673772
55	0xbe140a75	-0.14457114
56	0x3b8f1882	0.004366935
57	0xbdb1cef3	-0.086820506
58	0xbe6178b3	-0.220187
59	0xbe6a6f92	-0.22894123
60	0xbe7ad90b	-0.24496858
61	0xbe775491	-0.24153353
62	0xbd924ff1	-0.07144154
63	0xbe857898	-0.26068568

timing_layers.1.bn2.weight f4 [64]
0	0x3f23c875	0.6397775
1	0x3f548ac0	0.83024216
2	0x3f39aa28	0.7252526
3	0x3f40238f	0.7505426
4	0x3f27e806	0.65588415
5	0x3f36981a	0.7132584
6	0x3f00560b	0.5013129
7	0x3f3828dc	0.71937346
8	0x3f42676b	0.75939053
9	0x3f6c735f	0.9236354
10	0x3f034af8	0.5128627
11	0x3f46450a	0.77449095
12	0x3f68778c	0.90807414
13	0x3f34452d	0.70418054
14	0x3f0cc42e	0.54986846
15	0x3f4f7ecc	0.8105285
16	0x3f1f1d36	0.6215395
17	0x3f1d56b6	0.61460435
18	0x3f24f286	0.6443256
19	0x3f003e97	0.50095505
20	0x3f786e19	0.97042996
21	0x3f572f64	0.8405669
22	0x3f37e1ce	0.71828926
23	0x3f3d3246	0.73904836
24	0x3f4c07c4	0.7969935
25	0x3ef4ec9a	0.47836763
26	0x3f159167	0.5842499
27	0x3f190c78	0.5978465
28	0x3f177f3f	0.5917854
29	0x3edbcf58	0.42931628
30	0x3f1a82cd	0.60355836
31	0x3f7f39ad	0.9969738
32	0x3f0be7d3	0.5465061
33	0x3f614686	0.87998235
34	0x3f01c8fd	0.5069731
35	0x3f28fbb4	0.6600907
36	0x3efa0631	0.4883285
37	0x3eb7197d	0.35761634
38	0x3f2bcdd3	0.6711094
39	0x3f604835	0.8761018
40	0x3f20e425	0.6284812
41	0x3f7e0dfc	0.9924009
42	0x3f1d19b9	0.61367375
43	0x3f13a6ea	0.57676566
44	0x3f7d75a6	0.9900764
45	0x3f207ff8	0.62695265
46	0x3f300488	0.68756914
47	0x3f272460	0.6528988
48	0x3f11f601	0.57016
49	0x3f783b49	0.9696546
50	0x3f27781f	0.65417665
51	0x3f6bdab9	0.9213062
52	0x3f498441	0.7871743
53	0x3f56a4c3	0.83845156
54	0x3f033f78	0.5126872
55	0x3f1de1e0	0.6167278
56	0x3f56fd6c	0.8398044
57	0x3f5e3c24	0.8681052
58	0x3f212554	0.62947583
59	0x3efd001f	0.49414155
60	0x3f6351d2	0.8879672
61	0x3f0f9984	0.5609362
62	0x3f847100	1.0346985
63	0x3f364788	0.712029

timing_layers.1.bn2.bias f4 [64]
0	0x3dd1f9c4	0.10252717
1	0xbe1d621d	-0.15369458
2	0x3c6af50a	0.014340648
3	0x3e3826db	0.17983572
4	0xbd9225af	-0.07136094
5	0xbddd679d	-0.10810778
6	0xbd87c5eb	-0.06629547
7	0x3e46f046	0.19427595
8	0xbd88c956	-0.06679027
9	0xbe111bbb	-0.14170735
10	0xbdef5b65	-0.11687354
11	0xbda6c251	-0.08142532
12	0x3d45dc9d	0.048306096
13	0x3b8c5e9c	0.0042837393
14	0xbc9d1542	-0.019175176
15	0xbdee7916	-0.11644189
16	0xbd67c3c0	-0.056583166
17	0xbd6620e3	-0.056183707
18	0xbdf77cfc	-0.12084386
19	0xbe339440	-0.17537022
20	0x3c8e3ab7	0.017361982
21	0xbbc70cc1	-0.0060745184
22	0xbe4edbf0	-0.20201087
23	0xbd573c54	-0.052547768
24	0x3e329e2e	0.17443153
25	0xbe42738b	-0.18989389
26	0xbca0a888	-0.019611612
27	0xbd8abf4d	-0.06774769
28	0xbdee19a9	-0.11625988
29	0xbe233718	-0.15938985
30	0xbe3e2dfe	-0.18572232
31	0xbe19db96	-0.15025172
32	0xbd2d0773	-0.042243432
33	0xbcc57c5c	-0.02410715
34	0xbdb6884e	-0.08912717
35	0x3e1ed998	0.15512693
36	0xbd40d9a8	-0.047082573
37	0xbe5f3d57	-0.21800743
38	0xbd1a5d10	-0.037686408
39	0xbe0063fb	-0.1253814
40	0xbe2411b4	-0.16022378
41	0x3e671b38	0.22568977
42	0xbdf50904	-0.1196461
43	0xbd397efa	-0.04528711
44	0x3e173a5d	0.14768358
45	0xbd448c6a	-0.04798547
46	0xbdd04b35	-0.101705946
47	0xbdb7866d	-0.089611866
48	0xbe005b27	-0.12534772
49	0x3e132de3	0.14372973
50	0xbd35538d	-0.044269133
51	0x3d93a2bc	0.072087735
52	0x3cfbca81	0.03073621
53	0xbda6800a	-0.0812989
54	0xbd843848	-0.06456047
55	0xbe3457c2	-0.17611602
56	0xbdb95f0e	-0.09051333
57	0x3cd3f40e	0.02587321
58	0x3c312b9d	0.010813621
59	0xbde9db41	-0.114187725
60	0xbcf68169	-0.030091004
61	0xbe41fa6b	-0.18943183
62	0xbc7c04a1	-0.015381963
63	0x3e091a06	0.13388833

timing_layers.2.bn1.weight f4 [64]
0	0x3f1e0c4b	0.6173751
1	0x3ed72a6c	0.42024553
2	0x3f474787	0.7784352
3	0x3e805a25	0.25068775
4	0x3f0c0ab7	0.5470385
5	0x3f1a7060	0.6032772
6	0x3f269b5e	0.6508082
7	0x3e1f644f	0.15565608
8	0x3f138787	0.57628673
9	0x3e195122	0.14972356
10	0x3f02b5b5	0.5105851
11	0x3eab46f3	0.33452567
12	0x3f3e94de	0.74445903
13	0x3ef88c85	0.48544708
14	0x3eacee07	0.3377535
15	0x3f17a6a2	0.59238636
16	0x3ef156ab	0.47136435
17	0x3f26b30d	0.6511696
18	0x3e8016c9	0.25017384
19	0x3e286ded	0.16448183
20	0x3f4363c3	0.763241
21	0x3df005a2	0.117198244
22	0x3f3420fe	0.7036284
23	0x3ee01018	0.4376228
24	0x3ee0ee20	0.43931675
25	0xbc079ea1	-0.008277566
26	0x3f20763e	0.62680423
27	0x08a59fa9	9.968112e-34
28	0x3e447bfd	0.19187923
29	0x3f115870	0.5677557
30	0x3f1f24da	0.62165606
31	0x3f5e1875	0.8675607
32	0x88af1254	-1.0536738e-33
33	0x3e9daafc	0.30794513
34	0x3ecbc14c	0.3979591
35	0x3f45b152	0.77223694
36	0x3f344453	0.70416754
37	0x3f38a4f3	0.7212669
38	0x3f2ace83	0.6672136
39	0x3ed9fd5d	0.42576113
40	0x3f45981e	0.7718524
41	0x3f2b7072	0.6696845
42	0x3f1b3d72	0.60640633
43	0x3f24a71d	0.64317495
44	0x3ebed986	0.37275332
45	0x3f135994	0.5755856
46	0x3ee965c6	0.4558546
47	0x3f3aecb3	0.73017424
48	0x3f09d6e9	0.5384355
49	0x3f04c607	0.51864666
50	0x3ecd3687	0.40080664
51	0x3f2b6797	0.6695494
52	0x3f27397d	0.65322095
53	0x3ee022e0	0.43776608
54	0x3f17a380	0.59233856
55	0x3eeb5d20	0.45969486
56	0x3ee8b75b	0.4545239
57	0x3f2926ad	0.6607464
58	0x3e817bf1	0.25289872
59	0x3efea3fd	0.49734488
60	0x3e701a9c	0.2344765
61	0x3f0a54d0	0.54035664
62	0x3ea9259b	0.33036503
63	0x3ea6fdd8	0.32615542

timing_layers.2.bn1.bias f4 [64]
0	0xbde1ffe4	-0.110351354
1	0xbd9942bb	-0.07483431
2	0xbd2536b8	-0.040335387
3	0xbdd5a4d4	-0.10431829
4	0x3d874539	0.06605
5	0xbe41b014	-0.18914825
6	0xbd5cdc30	-0.053920925
7	0xbd38325b	-0.044969898
8	0xbdc3aaf3	-0.0955409
9	0xbe2d9323	-0.1695066
10	0xbe47a88f	-0.19497894
11	0xbd9ded64	-0.07711294
12	0x3def880d	0.116958715
13	0xbb9a1189	-0.0047017974
14	0x3c05a0f8	0.008156054
15	0xbea7de22	-0.3278666
16	0xbd85980d	-0.06523142
17	0xbdda9ea4	-0.106747895
18	0xbe7e93a9	-0.24861015
19	0xbe300a54	-0.1719144
20	0xbe07caf7	-0.13261019
21	0xbe02026c	-0.12696236
22	0x3ce547e7	0.027988387
23	0x3d2ba90c	0.041909263
24	0xbe30b718	-0.17257345
25	0xbbf1ed99	-0.00738306
26	0xbd3e8108	-0.046509773
27	0x9625c06f	-1.3389315e-25
28	0xbd56cdba	-0.05244229
29	0x3d636ca1	0.05552352
30	0xbde811e4	-0.11331537
31	0xbe4e41b3	-0.2014225
32	0x88a06074	-9.652326e-34
33	0xbe5f5c99	-0.21812667
34	0xbd1589d4	-0.036508396
35	0xbdf55f4b	-0.11981066
36	0x3da3b4c8	0.07993466
37	0xbd7d9821	-0.06191266
38	0xbe5cd6b5	-0.21566279
39	0xbe8404d5	-0.25784937
40	0x3e1566b9	0.14589967
41	0xbb70f8ff	-0.0036769507
42	0xbd3b1772	-0.045676656
43	0xbeb043f6	-0.3442685
44	0x3e16812f	0.14697717
45	0xbe284c5f	-0.16435383
46	0x3ca7e226	0.020493578
47	0xbdd37aa3	-0.103261255
48	0xbc7d44db	-0.015458311
49	0x3d804c90	0.06264603
50	0xbeb4b444	-0.35293782
51	0xbc359167	-0.01108203
52	0xbd36a0c0	-0.044586897
53	0xbeb85355	-0.36001077
54	0xbe901ab0	-0.2814536
55	0xbe302635	-0.17202075
56	0xbead590d	-0.33857003
57	0xbdc9aac1	-0.09847022
58	0xbd69f72e	-0.057120495
59	0xbd9cdd79	-0.0765943
60	0xbdd88767	-0.10572701
61	0xbdaa43d8	-0.083137214
62	0xbde43879	-0.11143584
63	0xbd0229fe	-0.031778328

timing_layers.2.bn2.weight f4 [64]
0	0x3f64152e	0.8909482
1	0x3f2d7387	0.67754406
2	0x3f48b80e	0.78405845
3	0x3f67ce90	0.90549564
4	0x3f9b1809	1.211671
5	0x3f65e96d	0.89809304
6	0x3f363a12	0.7118236
7	0x3f24fe69	0.644507
8	0x3f6bc00c	0.92089915
9	0x3f39c9cd	0.7257355
10	0x3f1c46d6	0.6104559
11	0x3f676832	0.90393364
12	0x3f4b5821	0.7943135
13	0x3f340909	0.70326287
14	0x3f46f189	0.77712303
15	0x3f6930c0	0.9109001
16	0x3f67bfdf	0.9052715
17	0x3f5c165b	0.8597161
18	0x3f3b872d	0.73253137
19	0x3f1d8f97	0.61547226
20	0x3f6b19be	0.91836154
21	0x3f2c4088	0.67285967
22	0x3f39042c	0.7227199
23	0x3ebe1677	0.37126514
24	0x3f58e78c	0.8472831
25	0x3f17de06	0.59323156
26	0x3f2d1fa5	0.6762641
27	0x3f3f32d6	0.74686944
28	0x3f433298	0.76249075
29	0x3f7add50	0.97993946
30	0x3f2e1145	0.679951
31	0x3f8c2aa7	1.0950516
32	0x3f796499	0.97419125
33	0x3f616730	0.88048077
34	0x3f520e97	0.8205351
35	0x3f6d32d0	0.9265566
36	0x3f2675db	0.65023583
37	0x3f549fb1	0.8305617
38	0x3f4be233	0.7964203
39	0x3f5433fb	0.82891816
40	0x3f47f017	0.78100723
41	0x3f6abbf9	0.91693074
42	0x3f4bf801	0.796753
43	0x3f3c702d	0.73608667
44	0x3f61e1ca	0.8823515
45	0x3f422546	0.75838125
46	0x3f5a9516	0.8538374
47	0x3f6deae1	0.9293652
48	0x3f6b4500	0.9190216
49	0x3f698f5a	0.9123436
50	0x3f3e0d26	0.7423881
51	0x3f808bcd	1.0042664
52	0x3f653b29	0.89543396
53	0x3f56b228	0.83865595
54	0x3f15fa67	0.5858521
55	0x3f3aa35b	0.7290551
56	0x3f6aae59	0.91672283
57	0x3f226653	0.63437384
58	0x3f7b2215	0.9809888
59	0x3f194544	0.59871316
60	0x3f6d5e3f	0.92721933
61	0x3f315bf7	0.6928095
62	0x3eddea77	0.43342945
63	0x3f4792b7	0.77958244

timing_layers.2.bn2.bias f4 [64]
0	0x3def7961	0.11693073
1	0xbe8f8ced	-0.28037205
2	0xbd809d99	-0.06280059
3	0x3def9218	0.11697787
4	0x3d767d98	0.06017837
5	0x3dfe1c54	0.12407747
6	0x3dbd8480	0.09253788
7	0xbd41c43d	-0.047306288
8	0xbd4f1d79	-0.050565217
9	0x3da7a215	0.081852116
10	0xbe22e8e8	-0.15909159
11	0x3d894f14	0.06704536
12	0xbe042a19	-0.12906684
13	0xbdbb7ef9	-0.091550775
14	0xbe0645ca	-0.1311256
15	0x3c4e6edc	0.012599673
16	0x3b66ab3a	0.0035197274
17	0x3e16fabd	0.14744087
18	0xbdbd3866	-0.09239273
19	0xbe400401	-0.18751527
20	0xbd487af4	-0.048945382
21	0xbd7fb7d2	-0.062431164
22	0xbda845d8	-0.08216447
23	0xbde28c93	-0.11061969
24	0x3e3dd9d6	0.18540129
25	0xbdab62f4	-0.08368483
26	0x3d59c912	0.05317027
27	0xbe1e5314	-0.1546138
28	0x3d31cdc6	0.04340913
29	0x3cb3841c	0.02191358
30	0xbdcae34b	-0.09906634
31	0xbe48c907	-0.19607936
32	0xbe474bd4	-0.1946252
33	0xbc73fdef	-0.014892085
34	0xbe081a92	-0.13291386
35	0x3d03f629	0.03221718
36	0xbe06f94c	-0.13181037
37	0x3df6333f	0.12021493
38	0xbcb84eda	-0.022498537
39	0x3cbb3e0f	0.02285674
40	0x3c260654	0.010133345
41	0x3b729524	0.0037015164
42	0x3d8a6dce	0.06759225
43	0xbd18c845	-0.037300367
44	0x3d9b2036	0.07574503
45	0xbdf471fb	-0.119358025
46	0x3db696c5	0.08915476
47	0xbd3e501a	-0.04646311
48	0xbcb3e1bf	-0.02195823
49	0xbe6c09a4	-0.23050553
50	0xbd87bca1	-0.06627775
51	0x3e0a1f6c	0.13488549
52	0x3e86d4c6	0.26334208
53	0xbd55b607	-0.052175548
54	0xbc830a83	-0.015996223
55	0xbe159ab1	-0.14609791
56	0x3de9ea1c	0.11421606
57	0xbce13542	-0.027491216
58	0xbe1bf369	-0.15229572
59	0xbde8bebb	-0.11364504
60	0xbc1a450f	-0.009415879
61	0xbe2f18e7	-0.17099343
62	0xbe3f5c8c	-0.18687648
63	0xbdde1cd1	-0.1084534

timing_layers.3.bn1.weight f4 [64]
0	0x3dfe052a	0.12403329
1	0x3eeb049d	0.45901957
2	0x3f4d78b8	0.8026233
3	0x3ed49828	0.41522336
4	0x3f15393f	0.58290476
5	0x3ef15b19	0.47139814
6	0x3e891afb	0.26778397
7	0x3ebd6111	0.36988118
8	0x3f489192	0.7834712
9	0x3f161452	0.58624756
10	0x3ee47092	0.44617134
11	0x3f36710f	0.71266264
12	0x3f041b67	0.5160431
13	0x3f01e8e0	0.50745964
14	0x3f40b417	0.75274795
15	0x3f2f82a9	0.68558747
16	0x3f184c06	0.59491
17	0x3f0bac0b	0.5455939
18	0x3ef88d94	0.48545516
19	0x3f008ce1	0.50214964
20	0x3f50ccf4	0.81562734
21	0x3ed5577b	0.41668305
22	0x3ef64fab	0.48107657
23	0x3efcf1eb	0.4940332
24	0x3f20f7c5	0.62878066
25	0x3edcd8a4	0.43134034
26	0x3f210b97	0.6290831
27	0x3edad93a	0.42743856
28	0x3ea34c97	0.3189437
29	0x3f777509	0.96662956
30	0x3ecf5608	0.40495324
31	0x3e970a5b	0.29500088
32	0x3f367cf9	0.71284443
33	0x3f1ec9c6	0.6202663
34	0x3f04aee8	0.51829386
35	0x3f02ef88	0.51146746
36	0x3f0b20f7	0.54347175
37	0x3f1bb9f7	0.60830635
38	0x3eef4bd2	0.46737534
39	0x3f1d8430	0.6152983
40	0x3f029004	0.51001
41	0x3f1d3165	0.61403495
42	0x3f41dd6e	0.757285
43	0x3f2467d5	0.64220935
44	0x3f09d284	0.53836846
45	0x3ee7f24e	0.4530205
46	0x3f3eb7d5	0.74499255
47	0x3f516d33	0.8180725
48	0x3eb066d2	0.34453446
49	0x3f3e6692	0.7437526
50	0x3ead411f	0.33838746
51	0x3f0f4939	0.55971104
52	0x3ed83b65	0.42232814
53	0x3f58a00c	0.8461921
54	0x3f2b1335	0.6682618
55	0x3eed49e4	0.46345437
56	0x3f0ac79b	0.54210824
57	0x3e974b09	0.29549435
58	0x3f0061bb	0.50149125
59	0x3f27b2ba	0.6550709
60	0x3f2bf83e	0.6717566
61	0x3ebce5cf	0.3689408
62	0x3f3534a0	0.70783424
63	0x3ef43951	0.4769998

timing_layers.3.bn1.bias f4 [64]
0	0xbe2e6c69	-0.17033543
1	0xbd654df9	-0.055982564
2	0x3d9e19f7	0.07719796
3	0xbd68f48b	-0.05687384
4	0x3cd3fb4f	0.02587667
5	0xbde48a4c	-0.111591905
6	0xbe5ecf77	-0.21758829
7	0xbe7408e9	-0.23831524
8	0xbeaf1e4b	-0.342028
9	0xbded4384	-0.11585143
10	0xbd4b772e	-0.049674205
11	0xbdb6b8c9	-0.08921964
12	0xbc052a8c	-0.00812782
13	0xbe13d297	-0.14435802
14	0xbe70c8ad	-0.23514052
15	0xbceebd73	-0.02914307
16	0xbd92b46f	-0.07163321
17	0xbde2a919	-0.11067409
18	0xbd71938e	-0.05897861
19	0xbdcb9a23	-0.099415086
20	0xbded400c	-0.115844816
21	0xbe3629cd	-0.17789383
22	0xbdfa1377	-0.12210744
23	0xbd691013	-0.056900095
24	0xbdafeb77	-0.08589833
25	0xbe899157	-0.26868698
26	0x3de8ba0d	0.11363611
27	0x3c9e33ac	0.019311748
28	0xbe4a17e2	-0.19735673
29	0xbc061b19	-0.0081851715
30	0xbdda02e7	-0.10645085
31	0xbe9f31cb	-0.31092677
32	0x3d8431c1	0.06454802
33	0xbd7fa2c4	-0.062411085
34	0xbddfbd5c	-0.10924789
35	0xbe58d15d	-0.21173616
36	0xbe3fdc9d	-0.18736501
37	0xbc8cad1a	-0.017172385
38	0xbd48189c	-0.048851594
39	0xbd1f61e6	-0.038911723
40	0xbe3935b4	-0.18086892
41	0xbd1aea29	-0.03782097
42	0xbe7f687e	-0.24942204
43	0xbd2d133a	-0.042254664
44	0xbdf6e11b	-0.12054654
45	0xbe4aab51	-0.19791915
46	0xbd995b56	-0.07488124
47	0xbd7fceb5	-0.06245299
48	0xbd8d097d	-0.06886575
49	0x3d4879e4	0.04894437
50	0xbd9429e6	-0.07234554
51	0xbcf6ebc4	-0.030141719
52	0xbdd9762d	-0.10618243
53	0xbd1535e1	-0.036428336
54	0x3d02f3a6	0.031970643
55	0xbdbec295	-0.09314457
56	0xbe7b9b1d	-0.2457089
57	0xbe2f965a	-0.17147198
58	0xbe043fc2	-0.12914947
59	0xbd09fd7d	-0.03368901
60	0x3b91e924	0.0044528414
61	0xbe270165	-0.16309126
62	0xbb0423de	-0.002016298
63	0xbbf55b80	-0.0074877143

timing_layers.3.bn2.weight f4 [64]
0	0x3f8a4ad6	1.0804088
1	0x3f3beda5	0.7340949
2	0x3f4d1b63	0.80119914
3	0x3f76f656	0.9646963
4	0x3f39831c	0.7246568
5	0x3f30e28d	0.6909569
6	0x3f5925e8	0.84823465
7	0x3f2a5f36	0.6655153
8	0x3f75e6a2	0.9605504
9	0x3f8723c8	1.0557795
10	0x3f1dc3ce	0.616269
11	0x3f4fbf77	0.8115153
12	0x3f507aaa	0.8143717
13	0x3f6f82e7	0.93559116
14	0x3f27751b	0.65413064
15	0x3f4cf587	0.80062145
16	0x3f725c7a	0.9467236
17	0x3f42cdb7	0.76095146
18	0x3f416763	0.7554838
19	0x3f171f61	0.59032255
20	0x3f3a5a42	0.7279397
21	0x3f48b8a9	0.7840677
22	0x3f0c852d	0.5489071
23	0x3f6cff35	0.92576915
24	0x3f50f0c7	0.816174
25	0x3ed90f50	0.42394495
26	0x3f4f7c63	0.81049174
27	0x3f959a60	1.1687737
28	0x3f4d3f28	0.80174494
29	0x3f7cb4e8	0.9871354
30	0x3f2a4732	0.66514885
31	0x3f776452	0.9663745
32	0x3f45acca	0.7721678
33	0x3f581cf9	0.8441921
34	0x3f424fc8	0.75902987
35	0x3f3eced3	0.7453434
36	0x3f3b19be	0.73086154
37	0x3f30b2fb	0.690231
38	0x3f85b528	1.044591
39	0x3f37f8e9	0.7186418
40	0x3f625536	0.8841127
41	0x3f3dbec7	0.7411923
42	0x3f2a37e0	0.6649151
43	0x3f1074ba	0.5642811
44	0x3f5e0b71	0.8673621
45	0x3f4958f2	0.78651345
46	0x3f433f49	0.7626844
47	0x3f55fb31	0.8358641
48	0x3f4dc7ed	0.8038319
49	0x3f4cc135	0.7998231
50	0x3f4c580c	0.7982185
51	0x3f875bdb	1.0574907
52	0x3f4bad3c	0.7956121
53	0x3f4721e1	0.7778607
54	0x3f373363	0.71562785
55	0x3f2dc220	0.67874336
56	0x3f55c401	0.83502203
57	0x3f4c3077	0.7976145
58	0x3f4871f5	0.78298885
59	0x3f6f8d92	0.93575394
60	0x3f544685	0.82920104
61	0x3f3e7426	0.7439598
62	0x3f2dde5f	0.67917436
63	0x3f64a983	0.89321154

timing_layers.3.bn2.bias f4 [64]
0	0x3da098cf	0.07841646
1	0x3db0aa03	0.08626177
2	0xbd3cce32	-0.04609508
3	0x3c670ffd	0.014102933
4	0xbe55f1f7	-0.20893084
5	0xbdd82770	-0.10554397
6	0x3dc67cda	0.09691782
7	0xbd2328c1	-0.039833788
8	0xbd11e5c2	-0.035619505
9	0xbcb6916c	-0.02228614
10	0xbe4dc734	-0.20095521
11	0xbd91bc96	-0.07116048
12	0x3c443e07	0.011977679
13	0xbd80ec73	-0.06295099
14	0xbe4ac943	-0.19803338
15	0xbe050ca5	-0.12993105
16	0xbb8e8e5f	-0.004350468
17	0xbe0d700e	-0.13812277
18	0x3cae70ed	0.021294082
19	0xbe39a282	-0.18128398
20	0x3e3814e1	0.17976715
21	0xbe057eac	-0.13036603
22	0xbe8dfec4	-0.27733433
23	0xbc785b16	-0.015158435
24	0xbd7d05f9	-0.061773274
25	0xbe23aa51	-0.1598294
26	0x3c70739b	0.014676
27	0x3dbd8481	0.09253789
28	0xbc9620e8	-0.018326238
29	0xbe729c61	-0.23692466
30	0xbd905a61	-0.070484884
31	0x3d4eab11	0.05045611
32	0x3e1ae7b5	0.15127452
33	0xbd9e232f	-0.077215545
34	0xbe047dfc	-0.12938684
35	0xbe2caa9e	-0.1686196
36	0xbdb6dbae	-0.08928619
37	0xbd620c9d	-0.05518781
38	0x3d7771de	0.060411327
39	0xbccdf6aa	-0.025142033
40	0x3d7e09f8	0.062021226
41	0xbe127f37	-0.14306341
42	0xbcfe0504	-0.031008251
43	0xbe253c77	-0.16136347
44	0x3dc2e415	0.095161594
45	0xbd89c5dc	-0.06727192
46	0xbd85bdc6	-0.06530337
47	0x3ca52f82	0.020164255
48	0x3d4ecb10	0.050486624
49	0xbc16fa50	-0.009214953
50	0xbdc29c7b	-0.095025025
51	0xbd507944	-0.050896898
52	0x3e6abe1d	0.22924085
53	0x3d7a9c1e	0.06118404
54	0xbd4865a4	-0.048925057
55	0xbe0e96b1	-0.13924672
56	0x3b53a0fc	0.0032292
57	0xbdf17caf	-0.1179136
58	0xbbdacdc5	-0.0066773617
59	0x3d7f775a	0.062369682
60	0x3be3a947	0.0069476697
61	0xbd515288	-0.0511041
62	0xbdeaa582	-0.11457349
63	0x3cf41f8d	0.0298002

timing_layers.4.bn1.weight f4 [64]
0	0x3f18ff42	0.5976449
1	0x3f29a0eb	0.66261166
2	0x3ef0462b	0.46928534
3	0x3f2f9c9c	0.6859834
4	0x3ee0cb1b	0.43904957
5	0x3ebe2f8f	0.3714566
6	0x3f1a98d6	0.6038946
7	0x3f3a06a4	0.7266638
8	0x3eed5929	0.46357086
9	0x3f4b8ca1	0.7951146
10	0x3f05bb05	0.52238494
11	0x3f491c1b	0.7855851
12	0x3f128d9b	0.5724732
13	0x3f161707	0.58628887
14	0x3f45c761	0.77257353
15	0x3ef6c886	0.48199862
16	0x3f1e0ff7	0.6174311
17	0x3ef58aa2	0.4795733
18	0x3efa0782	0.48833853
19	0x3f3def2f	0.7419309
20	0x3f0a8194	0.5410397
21	0x3f0c41ee	0.547881
22	0x3f29f368	0.66387033
23	0x3f7d6e32	0.9899627
24	0x3f35a24c	0.7095077
25	0x3e92491a	0.28571397
26	0x3f2b1ffb	0.66845673
27	0x3f22d583	0.63607043
28	0x3f4c1a16	0.79727304
29	0x3f1eab1b	0.61979836
30	0x3f16854e	0.58797157
31	0x3f0d88c7	0.5528683
32	0x3ef0f137	0.47059032
33	0x3f34dff7	0.70654243
34	0x3edca0db	0.43091473
35	0x3ec6ad65	0.38804165
36	0x3eeabf30	0.4584899
37	0x3f470ffa	0.77758753
38	0x3f29f497	0.6638884
39	0x3f1e5ba2	0.6185857
40	0x3f4103e6	0.75396574
41	0x3f39df9f	0.72606844
42	0x3f391d12	0.7230998
43	0x3ea66e3b	0.32505974
44	0x3f6c4048	0.92285585
45	0x3f3cca5d	0.7374628
46	0x3f05a407	0.5220341
47	0x3ea95468	0.3307221
48	0x3f10ff98	0.56640005
49	0x3f1358d4	0.57557416
50	0x3f4e38e6	0.8055557
51	0x3f798703	0.97471637
52	0x3f298289	0.66214806
53	0x3f0ae673	0.5425789
54	0x3f23ac73	0.6393501
55	0x3eee7f2c	0.465814
56	0x3f0f50e2	0.5598279
57	0x3f1caaeb	0.611983
58	0x3f0f9666	0.56088865
59	0x3ef84a30	0.484941
60	0x3f0bb1c2	0.5456811
61	0x3f3968cc	0.7242553
62	0x3f24748d	0.6424034
63	0x3f1ac264	0.60452867

timing_layers.4.bn1.bias f4 [64]
0	0xbd873d1e	-0.06603454
1	0xbe254618	-0.1614002
2	0xbe456b7f	-0.19279288
3	0xbd2a44db	-0.041569572
4	0xbe4f984a	-0.20272937
5	0xbe551410	-0.20808434
6	0xbe5a7e94	-0.21337348
7	0xbe541d8a	-0.20714393
8	0xbe6e61f6	-0.23279557
9	0xbd001572	-0.03127045
10	0xbe3f032f	-0.18653558
11	0xbe8106a5	-0.25200382
12	0xbde6c7fd	-0.112686135
13	0x3cb75155	0.02237765
14	0xbd945eaa	-0.07244618
15	0xbc0e2336	-0.008675387
16	0xbe32d7d0	-0.17465138
17	0xbd9cfb96	-0.07665174
18	0xbe5d5e85	-0.21618088
19	0xbc71ccb2	-0.014758276
20	0xbe589ee5	-0.21154363
21	0xbe4e249f	-0.20131157
22	0xbd6bf7ca	-0.057609357
23	0x3d9cc00a	0.07653816
24	0xbe5ef333	-0.2177246
25	0xbe64ac91	-0.22331454
26	0xbe5aba46	-0.2136012
27	0xbe1db255	-0.1540006
28	0xbd9c57fd	-0.0763397
29	0xbc7a0936	-0.015260985
30	0xbe4a8f00	-0.19781113
31	0xbe0e517f	-0.13898276
32	0xbe598b47	-0.21244536
33	0xbd426042	-0.04745508
34	0xbe20aebd	-0.15691657
35	0xbe1de2fd	-0.1541862
36	0xbdc44776	-0.095839426
37	0xbea5be51	-0.32371762
38	0xbde2719c	-0.110568255
39	0xbc5f53c0	-0.013630807
40	0x3cbb0731	0.022830578
41	0xbddb950d	-0.107217886
42	0xbcef1960	-0.029186904
43	0xbdf637f4	-0.12022391
44	0xbd7dede6	-0.061994456
45	0xbe227786	-0.15865907
46	0xbe44e215	-0.19226868
47	0xbe533835	-0.2062691
48	0xbe78e853	-0.24307375
49	0xbe17373a	-0.14767161
50	0xbd59adc7	-0.053144243
51	0xbeaf53b4	-0.34243548
52	0xbe4eb416	-0.20185885
53	0xbe8e883d	-0.27838317
54	0xbe7f0efe	-0.24908063
55	0xbe09eeb3	-0.13469963
56	0xbe82d362	-0.25551897
57	0xbd93abf2	-0.0721053
58	0x3be89e1f	0.0070989276
59	0xbc1e7d70	-0.009673461
60	0xbdfabf0d	-0.12243471
61	0xbeb775a4	-0.3583194
62	0xbdd4348b	-0.10361584
63	0xbcb98e86	-0.022650968

timing_layers.4.bn2.weight f4 [64]
0	0x3f97af89	1.1850444
1	0x3f57beac	0.8427532
2	0x3f4aa600	0.79159546
3	0x3f5df9d3	0.86709327
4	0x3f5a3416	0.85235727
5	0x3f56ea73	0.8395149
6	0x3f88b265	1.0679442
7	0x3f5f0204	0.8711245
8	0x3f608a9b	0.87711495
9	0x3f87769d	1.0583073
10	0x3f454796	0.77062356
11	0x3f8607bb	1.0471109
12	0x3f777526	0.9666313
13	0x3f22d868	0.6361146
14	0x3f5ec951	0.87025934
15	0x3f70fbd5	0.94134265
16	0x3f5a163a	0.85190165
17	0x3f816c84	1.0111241
18	0x3f4f5ad2	0.80997956
19	0x3f53b7a4	0.8270209
20	0x3f81c4f1	1.0138227
21	0x3f56c8a5	0.8389991
22	0x3f4bcef8	0.79612684
23	0x3f3da215	0.7407544
24	0x3f7e69ba	0.99380076
25	0x3f7b3983	0.9813463
26	0x3f7485da	0.9551674
27	0x3f8e8b28	1.1136217
28	0x3f921586	1.1412818
29	0x3f860ac4	1.0472035
30	0x3f87ec53	1.0618995
31	0x3f630a35	0.8868745
32	0x3f70e158	0.9409385
33	0x3f7e179f	0.9925479
34	0x3f3fe02e	0.74951446
35	0x3f7af3fd	0.98028547
36	0x3f89c25b	1.0762438
37	0x3f39c2ed	0.7256306
38	0x3f5243b1	0.8213454
39	0x3f81c866	1.0139282
40	0x3f5e75ca	0.8689848
41	0x3f59c8fc	0.850723
42	0x3f4a459b	0.7901246
43	0x3f54da69	0.8314577
44	0x3f5f185f	0.8714656
45	0x3f40f24a	0.75369704
46	0x3f8a254b	1.0792631
47	0x3f81ee9f	1.0150946
48	0x3f62f21c	0.8865068
49	0x3f6a3f55	0.91502887
50	0x3f5dd465	0.86652213
51	0x3f723a7e	0.946205
52	0x3f628df3	0.8849785
53	0x3f47a892	0.7799159
54	0x3f4b510d	0.7942055
55	0x3f7d0fbb	0.9885213
56	0x3f49c1c2	0.78811276
57	0x3f92edd4	1.1478829
58	0x3f73bc56	0.9520925
59	0x3f641029	0.8908716
60	0x3f78f172	0.97243416
61	0x3f3b69dd	0.7320841
62	0x3f565605	0.83725005
63	0x3f83fbec	1.0311255

timing_layers.4.bn2.bias f4 [64]
0	0x3ddd7a68	0.10814363
1	0xbe2f70e4	-0.17132908
2	0xbe1667a1	-0.14687969
3	0x3b323654	0.0027193027
4	0xbdfa97b3	-0.122359656
5	0x3d2b580c	0.041832015
6	0x3c9fb618	0.019496009
7	0x3b93724c	0.0044997092
8	0xbd8d8518	-0.06910151
9	0x3df34a43	0.11879399
10	0xbd0e00d1	-0.034668747
11	0x3d897285	0.06711296
12	0x3cb1cf90	0.021705419
13	0xbe2c8548	-0.16847718
14	0x3cb02eb7	0.02150665
15	0x3dceacbc	0.1009154
16	0x3d95d42b	0.073158585
17	0x3e363021	0.17791797
18	0xbe6d035a	-0.2314581
19	0xbd5351f3	-0.051591825
20	0x3da49ee1	0.08038116
21	0xbc5edc23	-0.013602289
22	0xbbded06f	-0.0067997496
23	0xbd001548	-0.031270295
24	0xbdbd3273	-0.09238138
25	0xbe32e6df	-0.17470883
26	0x3e14b269	0.14521183
27	0xbc4ec540	-0.01262027
28	0x3dd83d0f	0.10558521
29	0xbd05484a	-0.032539643
30	0x3e0a5e7b	0.13512604
31	0xbe2ad8ea	-0.16684309
32	0x3ddc7efc	0.10766408
33	0xbdc48c97	-0.09597128
34	0xbd93eecf	-0.072232835
35	0x3db4372c	0.08799586
36	0x3d0daf69	0.034591112
37	0xbdb80112	-0.08984579
38	0x3d880d3a	0.06643148
39	0xbddc1202	-0.10745622
40	0xbdbed5ff	-0.0931816
41	0x3c5783cf	0.013153984
42	0xbddcda9c	-0.10783884
43	0xbd15c19e	-0.0365616
44	0x3d8f8367	0.07007485
45	0xb9f901c0	-0.00047494285
46	0x3d72e5bc	0.059301123
47	0x3ce0f80b	0.027462026
48	0xbe3f5377	-0.18684183
49	0xbd9d1984	-0.07670882
50	0xbaf8645e	-0.001895081
51	0x3e0a136e	0.13483974
52	0x3d78e125	0.06076159
53	0x3d6aacce	0.057293706
54	0x3d2ee2db	0.042696815
55	0xbdd915ae	-0.10599838
56	0x3cd061cb	0.025437256
57	0x3d7ecaaa	0.062204994
58	0x3b63c71b	0.0034756127
59	0xbe299412	-0.1656039
60	0xbddc8a4e	-0.10768567
61	0xbe5fca9f	-0.21854638
62	0xbd5d1c6e	-0.05398219
63	0x3d1eb4db	0.038746696

timing_layers.5.bn1.weight f4 [64]
0	0x3f23634d	0.63823396
1	0x3f19b241	0.6003762
2	0x3f211d54	0.62935376
3	0x3f374cb5	0.7160142
4	0x3f6a649b	0.9155976
5	0x3f2d2bc8	0.6764493
6	0x3ef22a89	0.47298077
7	0x3ee2bbd3	0.44283924
8	0x3f359bf2	0.7094108
9	0x3f281909	0.656632
10	0x3f1bb737	0.6082644
11	0x3f1d5279	0.6145397
12	0x3f8590dd	1.0434834
13	0x3f138971	0.57631594
14	0x3f5bca53	0.858556
15	0x3ea4fe3b	0.32225212
16	0x3f302044	0.68799233
17	0x3f39bbbb	0.7255208
18	0x3ee90de5	0.45518413
19	0x3f23b506	0.63948095
20	0x3f0c8798	0.548944
21	0x3efa4c56	0.48886365
22	0x3f094c01	0.536316
23	0x3f122bac	0.5709789
24	0x3f28617f	0.6577377
25	0x3ee44562	0.44584185
26	0x3f4e7c0a	0.8065802
27	0x3f3e9891	0.7445155
28	0x3f0bd427	0.54620594
29	0x3f01d40d	0.5071419
30	0x3f0c1313	0.54716605
31	0x3f0dc626	0.55380476
32	0x3ef6cfe6	0.4820549
33	0x3f421b95	0.75823337
34	0x3f233d68	0.63765574
35	0x3ee8dccb	0.45480952
36	0x3f4bf704	0.7967379
37	0x3ed278aa	0.41107684
38	0x3f3014de	0.6878184
39	0x3f565cbb	0.83735245
40	0x3f568bcd	0.8380707
41	0x3f379707	0.71714824
42	0x3f4996bd	0.78745633
43	0x3f36c74b	0.71397847
44	0x3f27b274	0.6550667
45	0x3f02760c	0.50961375
46	0x3ee32d44	0.44370472
47	0x3f241edc	0.6410959
48	0x3f43d47c	0.764961
49	0x3f2c4b00	0.6730194
50	0x3f0b2b79	0.5436321
51	0x3f06460f	0.5245065
52	0x3ef31d60	0.4748335
53	0x3f46856a	0.77547324
54	0x3f37fd05	0.7187045
55	0x3f181736	0.5941042
56	0x3f4705bc	0.77743125
57	0x3f06e0c4	0.52686715
58	0x3f117ae4	0.5682814
59	0x3eda0706	0.42583483
60	0x3f5fd4eb	0.8743426
61	0x3efd5388	0.49477792
62	0x3f4636e4	0.77427506
63	0x3f38a16b	0.72121304

timing_layers.5.bn1.bias f4 [64]
0	0xbe647b3d	-0.22312637
1	0xbe5306f4	-0.20608121
2	0xbd863e68	-0.06554872
3	0xbe1c9cfa	-0.15294257
4	0xbe45923b	-0.19294064
5	0xbe45a2a6	-0.19300327
6	0xbe28d3bf	-0.16487025
7	0xbd98aeb5	-0.07455198
8	0xbec2ab94	-0.3802153
9	0xbd87446d	-0.06604848
10	0xbe71c2fa	-0.23609534
11	0xbe74e8f9	-0.23916997
12	0xbe9d2b01	-0.30696872
13	0xbe3da696	-0.18520579
14	0xbe1330c5	-0.14374073
15	0xbe25a2a2	-0.1617532
16	0xbe82204a	-0.2541526
17	0x3c831dca	0.016005415
18	0xbd1da21c	-0.038484678
19	0xbe637c5a	-0.22215405
20	0xbe536840	-0.20645237
21	0xbe9a3207	-0.30116293
22	0xbe443ce7	-0.19163857
23	0xbe834d12	-0.25644737
24	0xbe4e8cdc	-0.20170921
25	0xbdacea24	-0.08443096
26	0xbd93f72c	-0.07224879
27	0xbcd83e4a	-0.02639689
28	0xbe32aea0	-0.17449427
29	0xbe8bd224	-0.27308762
30	0xbe817b24	-0.2528926
31	0xbe05c133	-0.13061981
32	0xbd9f330a	-0.07773407
33	0xbe4d66d9	-0.20058765
34	0xbe390d95	-0.18071587
35	0xbe070b56	-0.13187918
36	0xbdc8c535	-0.09803239
37	0xbdb85372	-0.09000291
38	0x3b5eafdc	0.0033979332
39	0xbe91e678	-0.28496146
40	0xbcf53d10	-0.029936343
41	0xbebe1fd1	-0.3713365
42	0xbd6452a0	-0.05574286
43	0xbd2a2e59	-0.041548107
44	0xbdeac0c1	-0.11462546
45	0xbe318a93	-0.17338018
46	0xbe2d70c9	-0.16937555
47	0xbd42c0c7	-0.047547128
48	0xbe175596	-0.14778742
49	0xbdcaf010	-0.099090695
50	0xbd945441	-0.07242633
51	0xbe6b8617	-0.2300037
52	0xbd524353	-0.051333737
53	0xbeb343f7	-0.3501279
54	0xbe19610f	-0.14978431
55	0xbe93af08	-0.28844476
56	0xbe59705f	-0.21234272
57	0xbdbdcae2	-0.092672125
58	0xbe884b55	-0.26619974
59	0xbe55bdde	-0.2087321
60	0x3c02a057	0.007972798
61	0xbe2f4d2a	-0.1711928
62	0xbe5dffe1	-0.21679641
63	0x3dc813e8	0.09769422

timing_layers.5.bn2.weight f4 [64]
0	0x3f8bada4	1.0912366
1	0x3f71c985	0.9444812
2	0x3f8292cb	1.0201048
3	0x3f7f8a50	0.99820423
4	0x3f9efc29	1.2420703
5	0x3f557934	0.83388066
6	0x3f987a56	1.1912334
7	0x3f7cdfe5	0.98779136
8	0x3f95bcd0	1.1698246
9	0x3f6da4bc	0.9282949
10	0x3f54b809	0.83093315
11	0x3f86e369	1.053815
12	0x3f8ef65d	1.1168934
13	0x3f735eec	0.95066714
14	0x3f7a1acf	0.97697157
15	0x3f9fe30c	1.2491164
16	0x3f84285a	1.0324814
17	0x3f7ba3d1	0.9829684
18	0x3f5bf878	0.8592601
19	0x3f5a62a6	0.85306776
20	0x3f90f1cc	1.132379
21	0x3f8ee795	1.1164423
22	0x3f694357	0.9111838
23	0x3f706c57	0.93915313
24	0x3f7d883b	0.99035996
25	0x3f9e0f37	1.2348393
26	0x3f880d7f	1.0629119
27	0x3f8ec68b	1.115434
28	0x3f7157e2	0.94274724
29	0x3f84b2db	1.0367082
30	0x3f8ff079	1.1245261
31	0x3f71e311	0.944871
32	0x3f8571c5	1.0425345
33	0x3f7e1463	0.9924986
34	0x3f5cf7ea	0.86315787
35	0x3f5d5ba7	0.86467975
36	0x3f8079aa	1.0037129
37	0x3f829d84	1.020432
38	0x3f663770	0.8992834
39	0x3f9e159c	1.2350345
40	0x3f8dfa9d	1.1092106
41	0x3f7a1ea3	0.97703
42	0x3f5c563d	0.8606909
43	0x3f92ae2b	1.1459402
44	0x3f6d5bdd	0.927183
45	0x3f65ad7f	0.8971786
46	0x3f75135d	0.9573267
47	0x3f6e8b74	0.9318154
48	0x3f45eaba	0.7731129
49	0x3fa62d13	1.2982506
50	0x3f4c04c5	0.7969478
51	0x3f83f0c1	1.0307847
52	0x3f7c6844	0.98596597
53	0x3f795344	0.9739268
54	0x3f5f8b46	0.8732189
55	0x3f8289ba	1.0198281
56	0x3f89e093	1.077166
57	0x3f84eae8	1.0384188
58	0x3fa290b9	1.2700416
59	0x3f8013db	1.000606
60	0x3f4fe6c8	0.8121152
61	0x3f855203	1.0415653
62	0x3fa42fbc	1.2827067
63	0x3f597666	0.84946287

timing_layers.5.bn2.bias f4 [64]
0	0x3d9ef489	0.07761485
1	0xbdaf8ade	-0.08571409
2	0xbce7ad08	-0.02828075
3	0xbcfc0161	-0.030762376
4	0x3e4a68bc	0.19766515
5	0xbe1b249a	-0.15150681
6	0x3df3b95f	0.11900591
7	0x3cd96357	0.026536627
8	0x3d43c2f9	0.047793362
9	0xbdc5b402	-0.096534744
10	0x3dd5f8ca	0.104478434
11	0x3dc54708	0.09632689
12	0x3d49437c	0.049136624
13	0xbd5a1433	-0.05324192
14	0x3db29e02	0.08721544
15	0x3df17655	0.11790148
16	0x3e19e5a1	0.15029003
17	0xbd5f28cd	-0.05448227
18	0xbde7dc35	-0.11321298
19	0xbe3d5f70	-0.18493438
20	0x3e310889	0.17288412
21	0xbb0f4930	-0.0021863692
22	0xbd9eed74	-0.07760134
23	0xbdc0ccf1	-0.094140895
24	0x3e2d2391	0.16908099
25	0xbda13cf9	-0.07872958
26	0x3d8ce051	0.068787225
27	0x3dc6c450	0.097054124
28	0x3e760598	0.24025571
29	0x3e3112db	0.17292349
30	0x3e3196d1	0.17342688
31	0xbd7f0f72	-0.06227059
32	0x3e6f7a27	0.23386441
33	0xbcee20a4	-0.029068299
34	0xbd20408b	-0.039124053
35	0xbe148638	-0.14504325
36	0x3ca24eff	0.019813059
37	0x3ce3999f	0.027783213
38	0xbda7a8b8	-0.081864774
39	0x3e13f969	0.14450611
40	0x3cc7dc33	0.024396991
41	0x3d8060df	0.06268477
42	0xbe582599	-0.21108092
43	0xbde5c4e3	-0.11219194
44	0x3b36e22c	0.0027905805
45	0xbcef93cc	-0.02924528
46	0xbdcc442f	-0.099739425
47	0x3d2968f5	0.04135986
48	0x3da41879	0.0801248
49	0x3dc29910	0.095018506
50	0xbe559285	-0.20856674
51	0x3e3e9857	0.186128
52	0xbda44a87	-0.080220275
53	0x3cd203e4	0.02563662
54	0xbde6ed10	-0.11275685
55	0x3e315651	0.17318083
56	0xbcfd0544	-0.0308863
57	0xbd79fbc0	-0.061031103
58	0x3e09639b	0.13416903
59	0xbd2e5b18	-0.042567343
60	0xbd1ba5f2	-0.038000055
61	0xbe8694bc	-0.2628535
62	0x3d865f62	0.065611616
63	0xbc193ec0	-0.00935334

timing_layers.6.bn1.weight f4 [64]
0	0x3f2b15df	0.6683025
1	0x3f1947bc	0.5987508
2	0x3f4689f9	0.7755428
3	0x3f2a5dd0	0.66549397
4	0x3f18d1fc	0.5969541
5	0x3f06ec7b	0.5270459
6	0x3f1ae7f6	0.60510194
7	0x3f7a558d	0.9778679
8	0x3f4344be	0.7627677
9	0x3f61537c	0.8801801
10	0x3f3ad741	0.729847
11	0x3f36d724	0.7142203
12	0x3f25022b	0.64456433
13	0x3f3fae41	0.74875265
14	0x3f4f6555	0.81013995
15	0x3f0d607a	0.55225337
16	0x3f37dc94	0.7182095
17	0x3f4a379f	0.7899112
18	0x3f461b70	0.77385616
19	0x3f15ba52	0.5848743
20	0x3f2192c4	0.6311457
21	0x3f24ad4a	0.6432692
22	0x3f241a21	0.6410237
23	0x3f530e76	0.8244394
24	0x3f081a20	0.53164864
25	0x3f2dc0ad	0.67872125
26	0x3f6e5e8e	0.9311303
27	0x3ed9ace6	0.42514724
28	0x3f31228d	0.69193345
29	0x3f42e5b1	0.7613173
30	0x3f1cb221	0.61209303
31	0x3f18ec94	0.5973599
32	0x3f733965	0.9500945
33	0x3f634cb9	0.88788944
34	0x3f187660	0.59555626
35	0x3f14791a	0.57997286
36	0x3f1e8e6c	0.6193607
37	0x3f3f1841	0.74646384
38	0x3f360217	0.7109694
39	0x3f69824d	0.9121445
40	0x3f03c3f7	0.51470894
41	0x3f3b9970	0.73281
42	0x3f215081	0.63013464
43	0x3f6adfc6	0.917477
44	0x3f4203d0	0.7578707
45	0x3f068c4b	0.5255782
46	0x3f67f131	0.90602404
47	0x3f31c1df	0.6943645
48	0x3f230614	0.6368115
49	0x3f79cc19	0.97577053
50	0x3f580270	0.8437872
51	0x3f42b5ae	0.7605847
52	0x3f3f7771	0.7479163
53	0x3f6451ca	0.891873
54	0x3f52c227	0.823275
55	0x3f4a5685	0.7903827
56	0x3ef1a5f1	0.47196916
57	0x3f20b35b	0.62773675
58	0x3f1b63ca	0.6069914
59	0x3f3d9765	0.74059135
60	0x3f9aa577	1.2081746
61	0x3f1a0584	0.60164666
62	0x3f0b97b8	0.5452838
63	0x3f4c5b5f	0.7982692

timing_layers.6.bn1.bias f4 [64]
0	0xbe6baba6	-0.23014697
1	0xbe804a40	-0.25056648
2	0xbe662931	-0.22476651
3	0xbe21ca07	-0.15799724
4	0xbe40d32a	-0.18830553
5	0xbe925d2a	-0.28586704
6	0xbe26bdf9	-0.16283406
7	0xbe93d200	-0.28871155
8	0xbe98fa5b	-0.29878506
9	0x3c45be38	0.012069277
10	0xbe5b2a9f	-0.21402977
11	0xbe2b3c4b	-0.16722219
12	0xbdd92eae	-0.106046066
13	0xbdbf74f2	-0.093484774
14	0xbe8043c1	-0.25051692
15	0xbe209ab2	-0.15684012
16	0xbe90cc75	-0.28280988
17	0xbe36abcc	-0.17838973
18	0xbe4fab46	-0.2028018
19	0xbe31113e	-0.17291734
20	0xbe8c24a0	-0.27371693
21	0xbde24b04	-0.11049464
22	0xbddeeb31	-0.10884703
23	0xbe828a82	-0.25496298
24	0xbe6f5b1c	-0.23374599
25	0xbe84aa3d	-0.25911132
26	0xbe962562	-0.29325396
27	0xbddb3ce8	-0.10704976
28	0xbddaf446	-0.10691123
29	0xbe280c42	-0.16410926
30	0xbda3e31a	-0.080023006
31	0xbe78edc3	-0.24309449
32	0xbe2549c1	-0.16141416
33	0xbe0ee30c	-0.13953799
34	0xbe848b40	-0.2588749
35	0xbe64e8e0	-0.2235446
36	0xbe13fe3e	-0.14452454
37	0xbde7ffab	-0.11328062
38	0xbe8042ec	-0.25051057
39	0xbeb0f1f3	-0.34559593
40	0xbe1e2a0e	-0.1544573
41	0xbe540bdd	-0.2070765
42	0xbe8fc1c5	-0.28077522
43	0xbe5358a3	-0.20639281
44	0xbe779cf6	-0.2418097
45	0xbe0cc93e	-0.13748643
46	0xbea7c123	-0.3276454
47	0xbe2c0fa6	-0.16802844
48	0xbe7d5f3c	-0.2474336
49	0xbe445146	-0.19171628
50	0xbe517914	-0.20456344
51	0xbe6667e4	-0.22500569
52	0xbd6a457b	-0.057195168
53	0xbe4fbd76	-0.20287117
54	0xbe82de7c	-0.25560367
55	0xbddd5ef7	-0.10809129
56	0xbe75cce5	-0.24003942
57	0xbe167a7d	-0.14695163
58	0xbe85ddb6	-0.26145715
59	0xbd552117	-0.05203351
60	0xbd8f5268	-0.069981396
61	0xbdb93316	-0.09042947
62	0xbdd1a35e	-0.10236238
63	0xbe6c7905	-0.2309304

timing_layers.6.bn2.weight f4 [64]
0	0x3f935b1e	1.1512182
1	0x3fab1f77	1.3368977
2	0x3f9f5f2a	1.2450917
3	0x3f9a1fe5	1.2040983
4	0x3f9d3a57	1.2283429
5	0x3f878af4	1.058928
6	0x3fa341d6	1.2754467
7	0x3fcba581	1.5909883
8	0x3f977e0a	1.1835339
9	0x3fac19fe	1.3445432
10	0x3f6811e7	0.90652317
11	0x3f91058a	1.1329815
12	0x3fb038d7	1.3767346
13	0x3f8c4d35	1.0961062
14	0x3f8a1999	1.0789062
15	0x3f972abe	1.1809919
16	0x3f85feac	1.0468345
17	0x3f950852	1.1643164
18	0x3f916f27	1.1362046
19	0x3f7b6d5b	0.9821374
20	0x3fb826ac	1.4386802
21	0x3fa9a690	1.3253956
22	0x3f80dce3	1.0067409
23	0x3f59ea29	0.85122925
24	0x3f9b7886	1.2146156
25	0x3f8b8e5d	1.0902821
26	0x3fb69b95	1.426623
27	0x3f8b30ec	1.0874305
28	0x3fa3144d	1.274057
29	0x3f864aeb	1.0491613
30	0x3fa408d9	1.28152
31	0x3fb05ce6	1.377835
32	0x3f7deed7	0.99192566
33	0x3faf106a	1.3676884
34	0x3fb91130	1.445837
35	0x3fa13ec1	1.2597276
36	0x3f8f8b30	1.1214352
37	0x3fae7c89	1.3631755
38	0x3f8e6143	1.1123432
39	0x3f9bbb0c	1.2166457
40	0x3f9551dd	1.1665608
41	0x3f793871	0.9735175
42	0x3f7b5f46	0.9819225
43	0x3f898d58	1.074626
44	0x3f9bd997	1.2175778
45	0x3f84cf3d	1.0375744
46	0x3f8221b7	1.0166539
47	0x3f9f2cf9	1.24356
48	0x3f889fb0	1.0673733
49	0x3f87a7b8	1.0598059
50	0x3f833973	1.0251907
51	0x3f7a52c2	0.9778253
52	0x3f9b1609	1.21161
53	0x3f83aabb	1.0286478
54	0x3fabccbf	1.3421859
55	0x3fbb8f7a	1.465316
56	0x3fa2a7f2	1.2707503
57	0x3f7bb4fa	0.98323023
58	0x3f997b4f	1.1990756
59	0x3f85a72d	1.0441643
60	0x3f5ef70f	0.8709573
61	0x3f9ad922	1.2097514
62	0x3f9888e9	1.1916782
63	0x3f9d778a	1.2302105

timing_layers.6.bn2.bias f4 [64]
0	0x3e1761eb	0.14783446
1	0x3c9ad216	0.018899005
2	0x3ddcc232	0.10779227
3	0x3db8b6e8	0.090192616
4	0x3e77e949	0.24210085
5	0xbddd5bc0	-0.108085155
6	0x3e167bad	0.14695616
7	0x3e0d0370	0.13770843
8	0x3ddd1bc9	0.10796315
9	0x3dc05f01	0.093931206
10	0xbd9dd627	-0.07706862
11	0x3d83d838	0.06437725
12	0x3d3ba77c	0.045814022
13	0xbc7f5c38	-0.0155859515
14	0x3db39b70	0.08769882
15	0xbc8b483b	-0.017002216
16	0x3ca3f05e	0.020012077
17	0x3df9ef50	0.12203848
18	0x3da85148	0.08218628
19	0xbd831a25	-0.06401471
20	0x3db8d851	0.09025634
21	0x3e214a4c	0.15750998
22	0x3d18c333	0.03729553
23	0x3cb4be6d	0.022063458
24	0x3dc9ab74	0.09847155
25	0x3e153e82	0.14574626
26	0x3dacb6f4	0.08433333
27	0x3dab753b	0.08371969
28	0x3dc6ade8	0.09701139
29	0x3e626637	0.22109304
30	0x3e906a10	0.2820592
31	0x3d391ea1	0.045195226
32	0x3defb936	0.11705248
33	0x3e2a6e44	0.16643625
34	0x3dd7dbdc	0.10539982
35	0xbd155b26	-0.03646388
36	0xbceb9e59	-0.02876203
37	0x3db8e907	0.090288214
38	0x3d2892d7	0.041155662
39	0x3e1f6542	0.1556597
40	0xbd6bef83	-0.057601463
41	0x3ca833f7	0.020532591
42	0xbdfcaea8	-0.123380005
43	0x3df605c3	0.12012818
44	0xbd22ea49	-0.039774213
45	0x3da19419	0.078895755
46	0xbd696fc3	-0.05699135
47	0x3d05eece	0.032698445
48	0xbe09546d	-0.13411112
49	0xbdef3aaa	-0.11681111
50	0x3d45fe80	0.048338413
51	0x3daa1487	0.083046965
52	0x3ca236bc	0.01980149
53	0xbd594dd1	-0.053052727
54	0x3dd212dd	0.10257504
55	0x3da3d1d1	0.07999004
56	0xbe033aa2	-0.12815335
57	0xbccf672d	-0.025317753
58	0x3aa0ed55	0.0012277762
59	0x3d96dc43	0.0736623
60	0x3d5fe589	0.05466226
61	0xbd711a46	-0.058862947
62	0xbc25a4c5	-0.010110085
63	0xbd5f6239	-0.05453703

timing_layers.7.bn1.weight f4 [64]
0	0x3f5245e9	0.82137924
1	0x3f043a0c	0.5165107
2	0x3f703d69	0.93843704
3	0x3f2a529b	0.66532296
4	0x3f839c14	1.0282006
5	0x3f5ac396	0.8545469
6	0x3f2e35bc	0.6805074
7	0x3f20a8f0	0.6275778
8	0x3f4eba87	0.8075337
9	0x3f0fb20f	0.5613107
10	0x3f0ae6d1	0.5425845
11	0x3f70a2b1	0.9399825
12	0x3f2912d9	0.66044384
13	0x3f27fc47	0.6561932
14	0x3f2f740c	0.6853645
15	0x3f02b8d7	0.51063293
16	0x3f2d0bdb	0.67596215
17	0x3f3e69f1	0.74380404
18	0x3f4b0415	0.79303104
19	0x3f1b96a9	0.60776764
20	0x3f096cc6	0.536816
21	0x3f2fb3c8	0.686337
22	0x3f7f5813	0.99743766
23	0x3f510e82	0.8166276
24	0x3f855f5f	1.041973
25	0x3f18e269	0.59720474
26	0x3f61e9ba	0.88247263
27	0x3f8638f4	1.0486131
28	0x3f11f7da	0.57018816
29	0x3f2a05b7	0.6641497
30	0x3f1c2365	0.6099151
31	0x3f499b07	0.7875218
32	0x3f4cf37a	0.80059016
33	0x3f309e0f	0.6899118
34	0x3f5e66de	0.8687571
35	0x3f1f87ca	0.6231657
36	0x3f2863a8	0.65777063
37	0x3f4ea2b5	0.8071702
38	0x3f08cf38	0.5344119
39	0x3f286c8f	0.6579065
40	0x3f3b23ea	0.73101676
41	0x3f273a08	0.65322924
42	0x3f3df409	0.74200493
43	0x3f7aed7b	0.98018616
44	0x3f27aa46	0.6549419
45	0x3f085d67	0.5326752
46	0x3f5fcb18	0.8741927
47	0x3f330a3e	0.69937503
48	0x3f09abcf	0.53777784
49	0x3f691fd2	0.9106418
50	0x3f4572c0	0.7712822
51	0x3f319eb3	0.6938278
52	0x3f40bf93	0.7529232
53	0x3f2edf48	0.6830945
54	0x3f67eab3	0.905925
55	0x3ef9e42f	0.48806903
56	0x3f0b3c20	0.5438862
57	0x3f8a1e63	1.0790523
58	0x3f222292	0.63334
59	0x3f8d7abd	1.1053082
60	0x3f5814c2	0.84406674
61	0x3f50aacc	0.81510615
62	0x3f187e1c	0.5956743
63	0x3f4093db	0.7522561

timing_layers.7.bn1.bias f4 [64]
0	0xbe9ae25f	-0.30250832
1	0xbe5ce1c2	-0.21570495
2	0xbcbe7b3e	-0.023252126
3	0xbe636eec	-0.22210282
4	0xbeb74ea4	-0.35802186
5	0xbe488ce0	-0.1958499
6	0xbe48d8d5	-0.19613965
7	0xbe1de73f	-0.15420245
8	0xbeb0670f	-0.34453627
9	0xbe99b50e	-0.30020946
10	0xbe6e4c17	-0.23271213
11	0xbe96361a	-0.2933815
12	0xbe83a768	-0.25713658
13	0xbe0f8074	-0.14013845
14	0xbe296b8c	-0.16544932
15	0xbe52f370	-0.20600677
16	0xbe824e4e	-0.25450367
17	0xbea631c8	-0.32459855
18	0xbe9cc26f	-0.3061709
19	0xbe3fa1de	-0.18714091
20	0xbe1df4c0	-0.15425396
21	0xbe38153a	-0.17976847
22	0xbe674549	-0.22585024
23	0xbe0fe522	-0.14052251
24	0xbe22dab0	-0.15903735
25	0xbe6c6103	-0.23083882
26	0xbea3c54a	-0.31986457
27	0xbe85c9d3	-0.26130542
28	0xbe4e0241	-0.20118047
29	0xbe715e4b	-0.23571126
30	0xbe8110d8	-0.25208163
31	0xbea086b8	-0.31352782
32	0xbe9de065	-0.30835262
33	0xbe2e3297	-0.17011486
34	0xbe912117	-0.28345558
35	0xbe0b34b2	-0.1359432
36	0xbe488a89	-0.19584097
37	0xbe45104b	-0.19244497
38	0xbe692324	-0.22767311
39	0xbe8d94ae	-0.27652496
40	0xbe74a681	-0.23891641
41	0xbe3c5007	-0.18389903
42	0xbce8c26e	-0.028413024
43	0xbe2e6da1	-0.17034008
44	0xbe6c4fea	-0.2307736
45	0xbe55b101	-0.20868303
46	0xbe8c9ee4	-0.27464974
47	0xbe251334	-0.16120607
48	0xbe6b9d0a	-0.23009124
49	0xbe8a6ebe	-0.27037615
50	0xbe68ad2a	-0.22722307
51	0xbe7d3c8c	-0.24730128
52	0xbeb07eac	-0.34471643
53	0xbe97a573	-0.29618415
54	0xbe047e5a	-0.12938824
55	0xbe2df4f2	-0.1698797
56	0xbe696739	-0.22793283
57	0xbea79103	-0.32727823
58	0xbe8f1bff	-0.27951047
59	0xbe8aa4b6	-0.2707879
60	0xbe96c8ad	-0.29449978
61	0xbe68b4b4	-0.22725183
62	0xbe588de1	-0.21147873
63	0xbecbfc24	-0.39840806

timing_layers.7.bn2.weight f4 [64]
0	0x3f9c2568	1.2198915
1	0x3fba6789	1.4562846
2	0x3fc85f20	1.565403
3	0x3fc4717e	1.5347135
4	0x3fb80257	1.4375714
5	0x3f8ed812	1.115969
6	0x3fb949a9	1.4475604
7	0x3fcb24ed	1.5870644
8	0x3fb78034	1.4336
9	0x3f9f6290	1.2451954
10	0x3f90da1d	1.1316563
11	0x3faa8e4c	1.3324676
12	0x3fab7073	1.3393692
13	0x3fa3d5ad	1.2799584
14	0x3f710d09	0.94160515
15	0x3f8ebb2a	1.1150868
16	0x3fada671	1.3566419
17	0x3fb9f00e	1.4526384
18	0x3fa2f14f	1.2729892
19	0x3f898c0f	1.0745867
20	0x3fab125b	1.3364977
21	0x3fcd50c4	1.6040273
22	0x3fafc988	1.3733377
23	0x3fabba0b	1.3416151
24	0x3f9fb76a	1.2477849
25	0x3faf8a7c	1.3714137
26	0x3fed896f	1.8557566
27	0x3f7543a2	0.95806324
28	0x3fc0a822	1.505131
29	0x3fa55783	1.2917331
30	0x3fa9034d	1.3204132
31	0x3fbb672b	1.4640859
32	0x3fada3b3	1.3565582
33	0x3fc702c4	1.5547719
34	0x3fca7367	1.5816468
35	0x3fb30ca7	1.3988236
36	0x3fa9943d	1.3248364
37	0x3fbadf98	1.4599485
38	0x3f7c482a	0.98547614
39	0x3fd7f1fb	1.6870722
40	0x3fbf668b	1.4953169
41	0x3fa9c69f	1.3263739
42	0x3fb44109	1.4082347
43	0x3fabd940	1.3425674
44	0x3fb958e8	1.4480257
45	0x3f8c2e9d	1.0951725
46	0x3fa5812c	1.2930045
47	0x3fa8727d	1.3159939
48	0x3fa484e7	1.2853059
49	0x3fa216bb	1.2663187
50	0x3f954b61	1.1663629
51	0x3f9abc2e	1.2088678
52	0x3faa7fb7	1.3320225
53	0x3f81006d	1.0078255
54	0x3fb21c95	1.3914973
55	0x3fe654e0	1.7994652
56	0x3fb7f5ad	1.4371849
57	0x3f86b0d5	1.0522715
58	0x3fb11402	1.3834231
59	0x3f948344	1.1602559
60	0x3fa4a838	1.2863836
61	0x3f938fc8	1.1528254
62	0x3fb2386f	1.3923472
63	0x3fb9f3f1	1.452757
